model checkpoints/additive_model.pth (torch, 59019 bytes, 9 tensors)

model_weights f4 [2]
0	0x3f000000	0.5
1	0x3f000000	0.5

lstm.lstm.weight_ih_l0 f4 [56, 224]
0	0x3e537d37	0.20653234
1	0x3d80857e	0.062754616
2	0xbe270797	-0.16311489
3	0xbe1448e2	-0.14480928
4	0x3df9c85d	0.121964194
5	0x3dd3b5af	0.10337388
6	0x3e81379e	0.25237745
7	0x3b813219	0.0039427397
8	0x3ce04cda	0.027380396
9	0x3e87a536	0.26493233
10	0x3e35b3e1	0.177444
11	0xbd598c39	-0.053112242
12	0x3e2f9d32	0.17149809
13	0x3d838f23	0.064237855
14	0xbdfdb84a	-0.12388666
15	0xbe45433c	-0.19263929
16	0xbdb15e3c	-0.08660552
17	0x3e1c16ef	0.15243123
18	0x3e693791	0.22775103
19	0xbe0945fc	-0.13405603
20	0xbe86512e	-0.2623381
21	0xbe4bab4c	-0.19889563
22	0x3dcfe702	0.10151483
23	0x3e668cf6	0.2251471
24	0xbe3fc726	-0.18728313
25	0x3e14d684	0.14534956
26	0xbe03be2d	-0.12865515
27	0xbe2deb53	-0.169843
28	0x3c6bfcc9	0.01440353
29	0xbe173e04	-0.14769751
30	0xbd2563e4	-0.040378466
31	0x3d844ae2	0.06459595
32	0xbe6c1c10	-0.2305758
33	0xbd3df032	-0.046371646
34	0xbd41b48d	-0.047291327
35	0x3e0dbd21	0.13841678
36	0xbe1da093	-0.15393285
37	0x3df6613b	0.12030264
38	0x3e1535dd	0.14571328
39	0x3e812eb9	0.2523096
40	0x3e7c790f	0.24655555
41	0x3e5f2ddd	0.21794839
42	0x3d0c1b21	0.03420556
43	0x3e44fd3d	0.19237228
44	0xbd8fe4cc	-0.070260614
45	0xbcaf0a8d	-0.021367336
46	0x3e5760bf	0.21033
47	0xbe748fa5	-0.23882921
48	0xbdb24d9c	-0.08706209
49	0xbe5bcb88	-0.2146436
50	0xbd19fd52	-0.0375951
51	0xbd2486b2	-0.040167518
52	0xbdcf84fe	-0.10132788
53	0x3ba4b70d	0.005026704
54	0x3ca7ba37	0.020474536
55	0xbe3b4ea4	-0.18291718
56	0x3e25b036	0.161805
57	0x3e0da942	0.13834098
58	0x3d26affe	0.040695183
59	0xbe27cbba	-0.1638631
60	0x3e02b9ee	0.12766239
61	0x3e33f527	0.17573987
62	0x3ce3a090	0.027786523
63	0x3dbd4cab	0.09243139
64	0xbc644d90	-0.013934508
65	0xbe269c01	-0.16270448
66	0xbe6c0387	-0.2304822
67	0x3e67637d	0.22596546
68	0x3ddc7c90	0.10765946
69	0xbe9b0ad0	-0.30281687
70	0xbe48ea83	-0.19620709
71	0xbe84216f	-0.25806758
72	0xbe30e35a	-0.17274228
73	0x3caae697	0.020861907
74	0xbdf26fa2	-0.118376985
75	0xbe04ba9f	-0.12961815
76	0x3e41e7e7	0.1893612
77	0x3c99e9ef	0.018788306
78	0x3d122900	0.035683632
79	0x3df5f0a1	0.12008787
80	0x3e32eac0	0.17472363
81	0xbe81427f	-0.25246045
82	0x3e783efb	0.24242775
83	0xbd30b383	-0.043139946
84	0xbdfe425e	-0.12415002
85	0x3e806577	0.25077412
86	0xbd2ee38c	-0.042697474
87	0x3e0b35d1	0.13594748
88	0x3e2da18d	0.16956158
89	0x3e3de45d	0.18544145
90	0x3e43ec19	0.19133033
91	0x3e85601e	0.26049894
92	0xbe31ad31	-0.17351224
93	0xbe3e976a	-0.18612447
94	0xbe1a4466	-0.15065154
95	0x3d63ed9c	0.055646524
96	0x3e06f874	0.13180715
97	0x3e5708ca	0.20999447
98	0x3d129afa	0.03579233
99	0x3d012126	0.031525753
100	0x3e351f7e	0.17687795
101	0xbe4ec8f5	-0.20193847
102	0xbd85fd7a	-0.065424874
103	0xbe626e1a	-0.22112313
104	0x3e52ef0e	0.20599005
105	0xbd8b0333	-0.067877196
106	0x3c779b6f	0.015112742
107	0xbe15f19e	-0.14642951
108	0xbdeb3618	-0.11484927
109	0xbdf77e1e	-0.12084602
110	0x3dc12294	0.094304234
111	0xbe2e99c9	-0.17050852
112	0x3d851741	0.06498576
113	0x3c0915a0	0.008366972
114	0x3e402a47	0.18766128
115	0xbe0ceecb	-0.13762967
116	0xbdcdd718	-0.100507915
117	0x3e1f106c	0.15533608
118	0xbe83b2e9	-0.25722435
119	0x3e8706ea	0.26372463
120	0x3b9b49a2	0.0047390023
121	0xbb0b4c48	-0.0021255184
122	0xbc04d4b0	-0.008107349
123	0x3d6e5015	0.05818184
124	0xbe6fab9f	-0.23405312
125	0x3d91da92	0.07121767
126	0x3c6a4c63	0.014300439
127	0xbe86ba17	-0.2631385
128	0xbe068ee3	-0.13140444
129	0x3e31a634	0.17348558
130	0xbbabf35f	-0.005247518
131	0x3dd3ce15	0.103420414
132	0x3ddb1941	0.10698176
133	0x3e4fb1ca	0.20282665
134	0xbe59eca8	-0.21281683
135	0x3d1a120f	0.03761488
136	0x3cc8acd1	0.024496468
137	0x3df6acf3	0.12044706
138	0xbe21f6c3	-0.15816788
139	0xbe0e03b0	-0.13868594
140	0xbda0b8e1	-0.07847763
141	0x3e12d432	0.14338759
142	0xbdd81c7e	-0.105523095
143	0xbe3fd59a	-0.18733826
144	0x3e2a08ca	0.16604915
145	0x3e37b084	0.17938429
146	0xbbce99d0	-0.006304957
147	0x3d85a8d4	0.06526342
148	0x3dd6e3da	0.10492678
149	0x3e53e37a	0.20692244
150	0x3d9f44ca	0.07776792
151	0xbe152e06	-0.14568338
152	0x3e3b3000	0.1828003
153	0x3e03fdb1	0.12889744
154	0xbe815105	-0.25257125
155	0x3e56acc2	0.2096434
156	0x3e699384	0.22810179
157	0x3e7b6323	0.24549536
158	0xbe1ca344	-0.15296656
159	0x3d2ea5a7	0.042638447
160	0x3e4c2d75	0.19939215
161	0x3e3a5f71	0.1820047
162	0xbe07497d	-0.13211627
163	0xbe1567dd	-0.14590402
164	0xbe88e00c	-0.26733434
165	0x3dc477fb	0.09593197
166	0x3ca6b991	0.020352157
167	0x3e4cf0bd	0.2001371
168	0x3e8348c9	0.25641468
169	0x3e7e3bc8	0.24827492
170	0xbe539d45	-0.20665462
171	0xbe0d56f4	-0.13802701
172	0x3e821851	0.25409177
173	0xbe26c66f	-0.16286634
174	0xbc4e83f3	-0.012604701
175	0x3e4c8d23	0.19975714
176	0xbded1cdc	-0.1157777
177	0xbda00443	-0.07813313
178	0x3e78765a	0.24263898
179	0xbdfb65c5	-0.122752704
180	0xbe4538ec	-0.19259995
181	0xbe724e0b	-0.23662584
182	0xbcb534fc	-0.022119991
183	0xbd9a668a	-0.07539089
184	0x3db38c9f	0.08767056
185	0x3ca042a0	0.01956302
186	0xbe15fd49	-0.14647402
187	0xbe3a38a2	-0.18185666
188	0xbe311e06	-0.1729661
189	0x3cd361ac	0.02580341
190	0x3e7110de	0.2354159
191	0xbb5ab2b0	-0.0033370666
192	0xbc374c67	-0.011187649
193	0xbbf4d746	-0.0074719517
194	0xbcbad37f	-0.022805927
195	0x3e10be41	0.14135076
196	0xbdf9aafe	-0.12190817
197	0xbf058109	-0.5215002
198	0x3e4e24ed	0.20131274
199	0x3e1ca3d3	0.15296869
200	0x3e47e531	0.19521023
201	0xbe2acc31	-0.16679455
202	0xbd41d59a	-0.047322847
203	0x3e39611b	0.18103449
204	0xbe0a01f7	-0.13477312
205	0xbe04d441	-0.12971593
206	0x3e38939c	0.18025059
207	0x3e2618a8	0.16220343
208	0x3d6dce89	0.058058295
209	0x3d6f9362	0.058490165
210	0xbda4949a	-0.08036156
211	0xbe1eb9cc	-0.15500563
212	0xbe44eaf9	-0.1923026
213	0xbe5c4df6	-0.21514115
214	0x3d1a079a	0.037604906
215	0xbd3f15b6	-0.046651565
216	0xbcf8c69e	-0.030368146
217	0xbe46673a	-0.19375315
218	0xbe4ef296	-0.20209727
219	0xbd858cd4	-0.065210015
220	0x3e151088	0.14557087
221	0xbe2c4749	-0.16824068
222	0xbd96d580	-0.07364941
223	0x3e6ad8bf	0.22934245
224	0x3c968819	0.018375443
225	0xbcd32cfa	-0.025778282
226	0xbe2e2624	-0.17006737
227	0x3e00f4df	0.12593411
228	0xbd109c81	-0.035305504
229	0x3cdcabdd	0.02693742
230	0x3e7ff6bb	0.24996464
231	0xbe105162	-0.14093545
232	0x3de73767	0.11289864
233	0xbdbb94db	-0.09159251
234	0x3c9e18ed	0.019298995
235	0xbe7b0bbe	-0.24516198
236	0xbdc51177	-0.09622472
237	0x3e0c07f4	0.13674909
238	0x3dfd6fd0	0.12374842
239	0xbe639f79	-0.22228803
240	0xbe0ce1c5	-0.13757999
241	0x3e1dda5d	0.1541533
242	0xbbcf0647	-0.006317887
243	0x3e108e50	0.14116788
244	0xbe1c8a41	-0.15287115
245	0x3c8480da	0.016174722
246	0xbdef7f20	-0.11694169
247	0xbdb1af8c	-0.08676061
248	0x3ea36f63	0.3192092
249	0x3e298126	0.16553172
250	0xbe0b6ac7	-0.13614951
251	0xbe25c7fa	-0.16189566
252	0x3e10ab32	0.14127806
253	0xbd47d513	-0.048787188
254	0xbd1d17f4	-0.03835292
255	0x3e4f97a9	0.20272698

lstm.lstm.weight_hh_l0 f4 [56, 14]
0	0xbe0de45f	-0.13856648
1	0xbdba8a86	-0.091084525
2	0xbe37f194	-0.17963248
3	0xbe4540e0	-0.19263029
4	0x3dfcb6bc	0.12339541
5	0x3e4ecd9e	0.20195624
6	0xbdfef3c4	-0.12448838
7	0xbe0c30ed	-0.13690539
8	0x3cc5f6b0	0.024165481
9	0x3dbb8f74	0.09158221
10	0xbe58d332	-0.21174315
11	0xbda12e63	-0.07870176
12	0xbe841cf5	-0.25803342
13	0x3e60b29e	0.21943137
14	0x3df99d61	0.12188221
15	0xbd85c7f0	-0.06532276
16	0xbdfb6558	-0.12275189
17	0xbdf91efe	-0.121641144
18	0xbe873e41	-0.26414683
19	0x3e01a146	0.12659177
20	0x3dba1e84	0.09087852
21	0xbe156942	-0.14590934
22	0xbe4192de	-0.18903682
23	0x3e249f8c	0.16076487
24	0xbdc4e6a0	-0.09614301
25	0x3d8e8a9c	0.069600314
26	0x3d91440c	0.07093057
27	0xbdbcd970	-0.092211604
28	0x3d9e4384	0.07727721
29	0xbe3f2e22	-0.18669942
30	0x3d2252d8	0.039629787
31	0xbe110d1c	-0.14165157
32	0xbd9c30a8	-0.07626468
33	0x3cde5120	0.027138293
34	0x3d1dc868	0.0385212
35	0x3e5d15b2	0.21590307
36	0x3dd01a30	0.10161245
37	0xbe77102c	-0.24127263
38	0xbe817d5a	-0.25290948
39	0x3e7f2dee	0.24919865
40	0xbd4d68b0	-0.050148666
41	0xbe865186	-0.26234072
42	0xbd767d8c	-0.060178325
43	0x3ba450c0	0.005014509
44	0x3e875735	0.2643372
45	0xbde05884	-0.10954383
46	0x3dbc1170	0.091830134
47	0xbe08246d	-0.13295145
48	0x3e823949	0.2543433
49	0xbd91148a	-0.07083996
50	0xbe2dd47c	-0.16975588
51	0xbe07932a	-0.13239732
52	0xbe804819	-0.25055006
53	0x3e17dcb8	0.14830291
54	0x3e589b70	0.21153045
55	0xbe828e17	-0.2549903
56	0x3e2d25d0	0.16908956
57	0xbe40b978	-0.1882075
58	0x3e487b90	0.19578385
59	0x3e6886a4	0.22707611
60	0xbdbd9d6c	-0.092585415
61	0x3daa70f4	0.08322325
62	0x3e838d7d	0.25693884
63	0x3d35de80	0.044401646
64	0x3d2d17d8	0.042259067
65	0xbe666288	-0.22498524
66	0xbd917908	-0.07103163
67	0x3e7885a2	0.24269727
68	0xbdb092d8	-0.08621758
69	0x3de92c64	0.1138542
70	0xbd50e9c8	-0.0510042
71	0x3e53cddc	0.20683998
72	0x3e7551ce	0.23956987
73	0x3de76d14	0.11300102
74	0x3e817d8b	0.25291094
75	0x3d2aa728	0.04166332
76	0x3e5278a2	0.2055383
77	0x3e0abbf2	0.13548258
78	0xbc727ce0	-0.01480028
79	0x3e009382	0.1255627
80	0xbe58348a	-0.21113792
81	0xbe79b9b9	-0.24387254
82	0x3b853a03	0.0040657534
83	0xbe4332fc	-0.19062418
84	0x3d635680	0.055502415
85	0xbe548661	-0.20754386
86	0xbe303a79	-0.17209806
87	0x3e8200e7	0.25391313
88	0xbe5ffbea	-0.21873441
89	0xbe6519a7	-0.22373067
90	0x3e0ddc46	0.13853559
91	0xbcf45b70	-0.029828757
92	0xbcd26a60	-0.02568549
93	0xbe87979d	-0.2648286
94	0x3d58c310	0.0529204
95	0xbdcf1ff6	-0.10113518
96	0xbe86459c	-0.26224983
97	0x3cc99820	0.024608672
98	0xbd0e01f0	-0.034669816
99	0xbe6017fe	-0.21884152
100	0x3e225a88	0.15854847
101	0x3e513c22	0.20433095
102	0x3b240600	0.002502799
103	0x3e30cbe6	0.17265281
104	0xbd8d7d48	-0.06908661
105	0xbe33ef96	-0.17571864
106	0x3b278200	0.0025559664
107	0xbbb68d00	-0.0055710077
108	0xbc18d7e0	-0.009328812
109	0x3e00bea2	0.1257272
110	0xbde131bc	-0.10995814
111	0xbe3e4239	-0.1857995
112	0x3d2b5b38	0.04183504
113	0x3b55d980	0.003263086
114	0x3e17aea4	0.14812714
115	0xbe21f163	-0.15814738
116	0xbe68ee06	-0.22747049
117	0x3df35fb0	0.11883485
118	0xbe0e42a3	-0.13892607
119	0x3cd9d6e0	0.026591718
120	0xbe3eac5a	-0.18620434
121	0x3e1ee176	0.15515694
122	0x3d763580	0.060109615
123	0x3d54e8d8	0.05197987
124	0x3de79f4c	0.1130968
125	0x3deb98dc	0.11503765
126	0x3e16b71e	0.14718291
127	0x3d850630	0.06495321
128	0x3d431a38	0.047632426
129	0xbdab881c	-0.0837557
130	0x3d968608	0.07349783
131	0xbe80793e	-0.250925
132	0xbe2db2b7	-0.16962706
133	0xbd1bb124	-0.03801073
134	0xbdfcabb4	-0.12337437
135	0x3cb42fb0	0.021995395
136	0xbd3946a0	-0.04523337
137	0xbdbe3826	-0.09288053
138	0x3e01604a	0.12634388
139	0x3df22e40	0.11825228
140	0x3e41176c	0.18856591
141	0x3e618236	0.22022328
142	0xbe4ea106	-0.20178613
143	0x3dd27c34	0.10277596
144	0xbd9160d0	-0.07098544
145	0xbd82d9a0	-0.06389165
146	0x3d6d05a0	0.057866693
147	0x3e3cdf7a	0.18444625
148	0xbcd8a530	-0.026445955
149	0xbdddd7b6	-0.10832159
150	0xbd2a58c8	-0.041588575
151	0x3e06b044	0.13153177
152	0xbcaacb48	-0.020848885
153	0xbdcae6a8	-0.099072754
154	0xbdf33d66	-0.11876945
155	0x3db57fac	0.08862242
156	0x3ce19dc0	0.027541041
157	0x3c7a63e0	0.015282601
158	0xbe705499	-0.23469771
159	0xbdd6e6ac	-0.10493216
160	0xbe83dc39	-0.25753954
161	0x3e2f9434	0.17146379
162	0xbe0710e6	-0.1319004
163	0xbe259a70	-0.16172194
164	0x3af8a500	0.0018970072
165	0xbdf053a8	-0.11734706
166	0x3de6c6b8	0.11268371
167	0x3da1c7cc	0.07899436
168	0xbde3b85c	-0.11119148
169	0xbd8d581b	-0.069015704
170	0x3dc576b8	0.096417844
171	0x3d4c8650	0.049932778
172	0xbcdf71f0	-0.02727601
173	0x3e834a57	0.25642654
174	0xbdbe39ce	-0.09288369
175	0xbdb855f2	-0.09000768
176	0xbd867d54	-0.06566873
177	0xbe28a4a5	-0.16469057
178	0xbd9e56be	-0.077313885
179	0x3e82042a	0.25393802
180	0xbe18fb7b	-0.14939682
181	0x3e86ad53	0.2630411
182	0x3d1f4378	0.038882703
183	0xbe4a34c4	-0.19746691
184	0xbbf095c0	-0.0073420703
185	0x3d269200	0.04066658
186	0xbc3d1700	-0.011541128
187	0xbe012d2b	-0.12614886
188	0xbdfaa590	-0.1223861
189	0x3e595678	0.21224391
190	0xbd73f398	-0.05955848
191	0xbdcfc974	-0.10145846
192	0xbe51747f	-0.20454596
193	0xbe854879	-0.26031855
194	0xbe566480	-0.20936775
195	0x3e179440	0.14802647
196	0x3de18034	0.11010781
197	0x3db49f34	0.08819428
198	0xbe579894	-0.21054298
199	0xbe6d0f14	-0.23150283
200	0xbdec472a	-0.11537011
201	0x3e47f862	0.19528344
202	0x3e18a9ee	0.14908573
203	0xbe4a75ec	-0.19771546
204	0xbe3c36c2	-0.18380263
205	0x3e79574e	0.2434971
206	0x3e2a84b6	0.16652188
207	0xbe19309a	-0.14959946
208	0x3ca1b560	0.019739807
209	0xbd94f6a4	-0.072736055
210	0x3e363bc0	0.1779623
211	0x3e33efed	0.17571993
212	0xbe0f1f6b	-0.13976829
213	0x3d48c9a8	0.04902044
214	0x3e86402d	0.26220837
215	0x3e4e2264	0.20130306
216	0x3e7107fa	0.23538199
217	0x3e0a09f0	0.13480353
218	0x3d376de0	0.04478252
219	0xbddd7a8e	-0.10814391
220	0xbe880dae	-0.26572937
221	0x3d8e8d6e	0.06960569
222	0xbe1954aa	-0.14973703
223	0xbe322410	-0.17396569
224	0x3df722bc	0.12067172
225	0xbe769024	-0.24078423
226	0x3e5648a0	0.20926142
227	0xbe7bf41e	-0.24604842
228	0xbe86eac8	-0.26351
229	0x3d364c28	0.044506222
230	0x3e6e554e	0.23274729
231	0x3c02a360	0.007973522
232	0xbe86b402	-0.2630921
233	0x3da51e38	0.080624044
234	0x3dd264a8	0.10273105
235	0x3e834f07	0.2564623
236	0xbd5f8bb8	-0.054576606
237	0x3e5e9b0c	0.21738833
238	0x3e19f774	0.15035802
239	0x3db3af30	0.08773649
240	0x3c6b89e0	0.014376134
241	0xbcad3df0	-0.021147698
242	0x3d873f6c	0.06603894
243	0x3dacefb4	0.08444157
244	0x3d482c48	0.048870355
245	0xbad30900	-0.0016100705
246	0xbd8096bc	-0.0627875
247	0xbe777c77	-0.24168573
248	0x3e2595dc	0.16170448
249	0x3cf709a0	0.030155957
250	0xbe6cae7e	-0.23113438
251	0xbe6ab132	-0.22919157
252	0xbdc065cc	-0.09394416
253	0xbda8dea0	-0.08245587
254	0xbd8c6676	-0.068554804
255	0x3df756b8	0.12077087

lstm.lstm.bias_ih_l0 f4 [56]
0	0x3e6e370b	0.23263185
1	0x3cd080e3	0.025452083
2	0xbe04eb7a	-0.12980452
3	0x3e262610	0.16225457
4	0xbe626107	-0.22107325
5	0xbe0521d0	-0.1300118
6	0x3e842609	0.2581027
7	0xbe66fe21	-0.2255788
8	0x3c149680	0.009069085
9	0x3d8efc18	0.06981677
10	0xbe0dcfb3	-0.13848762
11	0x3e77a3c6	0.24183568
12	0x3e71a91a	0.23599663
13	0x3d896f1c	0.067106456
14	0xbe536f06	-0.20647821
15	0x3e2ac994	0.16678458
16	0x3d0b7320	0.03404534
17	0xbe483ead	-0.19555159
18	0x3dab1e24	0.08355358
19	0x3cc41070	0.02393362
20	0xbd99136e	-0.07474409
21	0xbe569aec	-0.20957536
22	0xbdd4cbf6	-0.10390465
23	0xbe84a4ee	-0.2590708
24	0xbb9927c0	-0.004673928
25	0xbe8203ec	-0.25393617
26	0x3da3e9e8	0.080035985
27	0xbdb9fcfa	-0.090814546
28	0x3e0f242a	0.13978639
29	0x3e153aea	0.14573255
30	0xbd90e110	-0.07074177
31	0xba80ce00	-0.0009827018
32	0x3d47c279	0.048769448
33	0xbdf15b7e	-0.11785029
34	0x3c711040	0.014713347
35	0xbe31da37	-0.17368399
36	0xbd4be6b8	-0.049780577
37	0xbe56c862	-0.20974877
38	0xbe34c43a	-0.1765298
39	0x3e008a34	0.1255272
40	0x3e2c7104	0.16839987
41	0x3c891450	0.016733319
42	0x3d9b5735	0.07584993
43	0xbcc0e610	-0.023547202
44	0xbdbc6122	-0.09198214
45	0xbd99e1e8	-0.07513791
46	0x3c949f26	0.018142294
47	0x3e61fcec	0.22069138
48	0x3dbec250	0.09314406
49	0x3dd4832d	0.10376582
50	0x3c8dda40	0.017315984
51	0x3d5548e0	0.052071452
52	0xbda7e35a	-0.08197661
53	0x3d4310a9	0.04762331
54	0x3b0e2800	0.0021691322
55	0x3e849971	0.25898317

lstm.lstm.bias_hh_l0 f4 [56]
0	0xbdde10f7	-0.108430795
1	0x3e65c3ed	0.22438021
2	0xbe197e74	-0.14989644
3	0xbe465e7e	-0.19371983
4	0xbdd812ec	-0.10550484
5	0xbe2be410	-0.16786218
6	0xbe82babf	-0.255331
7	0x3e59f276	0.21283898
8	0x3e649206	0.22321329
9	0xbe460ed9	-0.19341601
10	0xbcf9b8c0	-0.030483603
11	0x3e86819b	0.26270756
12	0xbd9d9f08	-0.076963484
13	0xbe4ab449	-0.19795336
14	0x3cf3a280	0.029740572
15	0x3e44dcf8	0.19224918
16	0xbd791fb8	-0.060821265
17	0x3dd1688c	0.10225019
18	0xbcbee10a	-0.023300666
19	0x3de2a044	0.110657245
20	0x3e2285b6	0.15871319
21	0x3db84d2c	0.08999094
22	0xbdd88fe2	-0.105743185
23	0xbe358e93	-0.17730169
24	0x3e194d08	0.14970791
25	0xbd4d52b3	-0.050127696
26	0xbdcbd072	-0.09951867
27	0xbe206508	-0.1566354
28	0x3e79606a	0.24353185
29	0x3e211804	0.15731817
30	0xbdeebe78	-0.11657423
31	0x3e08d088	0.13360798
32	0xbe6708dd	-0.22561975
33	0xbd49c930	-0.049264133
34	0x3ccbe830	0.024890989
35	0x3e016e40	0.12639713
36	0xbe4db412	-0.20088223
37	0x3dc3d9cc	0.09563026
38	0xbe1e313a	-0.15448466
39	0xbe0c9624	-0.13729149
40	0xbdb82d60	-0.089930296
41	0xbe2d092c	-0.1689803
42	0xbe836478	-0.2566259
43	0xbd2a53a4	-0.041583672
44	0x3db4f4e8	0.08835775
45	0x3e24e1d2	0.16101769
46	0x3e2e7e6c	0.17040414
47	0x3d8b8fc0	0.068145275
48	0x3d42e88d	0.04758506
49	0x3e0bc71a	0.1365017
50	0x3e2731e8	0.16327631
51	0xbe1ced7b	-0.15324967
52	0xbd386b28	-0.045024067
53	0x3c41cc11	0.011828438
54	0x3d700750	0.058600724
55	0x3de30ed8	0.110868156

gcn.gc1.weight f4 [16, 3]
0	0x00000000	0.0
1	0x00000000	0.0
2	0x00000000	0.0
3	0x00000000	0.0
4	0x00000000	0.0
5	0x00000000	0.0
6	0x00000000	0.0
7	0x00000000	0.0
8	0x00000000	0.0
9	0x00000000	0.0
10	0x00000000	0.0
11	0x00000000	0.0
12	0x00000000	0.0
13	0x00000000	0.0
14	0x00000000	0.0
15	0x00000000	0.0
16	0x00000000	0.0
17	0x00000000	0.0
18	0x00000000	0.0
19	0x00000000	0.0
20	0x00000000	0.0
21	0x00000000	0.0
22	0x00000000	0.0
23	0x00000000	0.0
24	0x00000000	0.0
25	0x00000000	0.0
26	0x00000000	0.0
27	0x00000000	0.0
28	0x00000000	0.0
29	0x00000000	0.0
30	0x00000000	0.0
31	0x00000000	0.0
32	0x00000000	0.0
33	0x00000000	0.0
34	0x00000000	0.0
35	0x00000000	0.0
36	0x00000000	0.0
37	0x00000000	0.0
38	0x00000000	0.0
39	0x00000000	0.0
40	0x00000000	0.0
41	0x00000000	0.0
42	0x00000000	0.0
43	0x00000000	0.0
44	0x00000000	0.0
45	0x00000000	0.0
46	0x00000000	0.0
47	0x00000000	0.0

gcn.gc1.bias f4 [3]
0	0x3e5d3ddb	0.21605627
1	0x3bba136e	0.0056785857
2	0x3e79f66a	0.24410406

fc.weight f4 [14, 42]
0	0x3d39f218	0.045396894
1	0x3d464177	0.048402276
2	0x3dddec4b	0.10836085
3	0x3b772267	0.0037709714
4	0x3cbb3783	0.022853618
5	0xbdfe4390	-0.1241523
6	0xbdc3abc2	-0.095542446
7	0x39ea330a	0.00044669985
8	0xbd348455	-0.044071514
9	0x3de1b4a3	0.11020782
10	0xbd0a0cf1	-0.033703748
11	0xbd9a302b	-0.075287186
12	0x3dacac28	0.08431274
13	0xbd25418f	-0.040345725
14	0xbdb98d63	-0.090601705
15	0x3ddd4daf	0.108058326
16	0xbdd88177	-0.105715685
17	0xbdbe7ab9	-0.09300751
18	0x3d5b791a	0.05358229
19	0x3e173a0f	0.14768241
20	0xbd0d026f	-0.03442615
21	0xbd75331a	-0.059863187
22	0x3dae63cf	0.08515131
23	0x3d9db893	0.0770122
24	0xbdb41929	-0.087938614
25	0xbe082aad	-0.1329753
26	0x3de28e47	0.110622935
27	0xbda550d5	-0.08072058
28	0xbd6151dc	-0.055009708
29	0xbded7d0e	-0.11596118
30	0x3dc552b3	0.09634914
31	0xbe098347	-0.13428985
32	0x3e02cf0b	0.12774293
33	0xbc7ea3a8	-0.015541948
34	0x3da62d95	0.08114163
35	0xbd1a2814	-0.037635878
36	0xbd5f830f	-0.054568347
37	0x3db450e7	0.088044934
38	0xbdbbac41	-0.09163714
39	0x3cf1cfea	0.029518086
40	0x3dbf57f5	0.09342948
41	0x3e11f376	0.14253029
42	0xbc73b600	-0.014874935
43	0x3c8cbc4e	0.017179634
44	0xbcaf1dbe	-0.021376487
45	0x3b6678b4	0.003516716
46	0xbcf17dab	-0.029478868
47	0xbe417dcd	-0.18895645
48	0xbdfd934e	-0.12381612
49	0x3cb8c223	0.02255351
50	0xbe1f0020	-0.15527391
51	0xbdcc2264	-0.09967497
52	0x3d0c2bd2	0.034221478
53	0xbddb0099	-0.10693473
54	0xbde06359	-0.10956449
55	0xbd599352	-0.05311901
56	0x3bfa1233	0.007631564
57	0xbd189e44	-0.03726031
58	0x3c81b4d9	0.015833305
59	0xbe0f6f57	-0.14007317
60	0xbdc1dae3	-0.094655775
61	0x3cf3e46d	0.029772008
62	0xbe27f9c2	-0.16403869
63	0xbd64f89d	-0.05590116
64	0xbcb0958c	-0.021555685
65	0x3d5c0596	0.053716265
66	0xbd3dfe5f	-0.046385165
67	0xbe1020d4	-0.14075023
68	0x3b8b64e7	0.004253972
69	0xbe40b0f6	-0.18817505
70	0x3d8c6014	0.06854263
71	0xbd95f64b	-0.07322367
72	0x3d37c575	0.044866044
73	0x3def9769	0.11698801
74	0xbda4d6ac	-0.08048758
75	0xbdf95c34	-0.121757895
76	0x3daa3cb1	0.08312357
77	0xbd111277	-0.035418
78	0x3da458cc	0.08024749
79	0x3dea3519	0.11435909
80	0xbc2bc8e4	-0.010484908
81	0xbe126c93	-0.1429923
82	0xbd5425e3	-0.051793944
83	0xbda7a4e7	-0.081857495
84	0xbcbd2b97	-0.023092074
85	0x3dd7d0fa	0.10537906
86	0xbbb19a59	-0.005420011
87	0xbdabeb73	-0.08394518
88	0x3d948582	0.07252027
89	0x3dbb1d0a	0.09136398
90	0xbca5f6db	-0.020259311
91	0xbdba83c2	-0.09107162
92	0x3d30eae8	0.043192774
93	0x3e18c170	0.1491754
94	0xbd4636f0	-0.048392236
95	0x3da16488	0.07880503
96	0xbd64d6d6	-0.055868946
97	0x3e0a3687	0.13497363
98	0x3dd384c8	0.103280604
99	0x3dc0333b	0.093847714
100	0xbdf15118	-0.117830455
101	0xbc1a4774	-0.00941645
102	0x3d93985b	0.07206794
103	0x3db1fba8	0.08690578
104	0xbcc7c3f2	-0.024385426
105	0xbd36b70a	-0.044608153
106	0x3dfe4a22	0.124164835
107	0xbcb0b14c	-0.021568917
108	0x3cb8ea11	0.022572549
109	0x3cd2f0b8	0.02574955
110	0x3dc999f4	0.09843817
111	0xbd886efe	-0.06661795
112	0x3cb7e4f8	0.022448048
113	0xbe154b1b	-0.14579432
114	0xbdfd388d	-0.12364302
115	0xbcf557df	-0.029949127
116	0x3ddad3a4	0.106848985
117	0xbd9a746d	-0.07541738
118	0xbd333832	-0.043754764
119	0x3d2bf0c0	0.041977644
120	0xbd844ee4	-0.0646036
121	0xbc018885	-0.007906084
122	0x3e1a5785	0.15072449
123	0x3dc94119	0.098268695
124	0x3d1aec02	0.03782273
125	0xbda23c8d	-0.079217054
126	0xbd50ba3b	-0.050958853
127	0xbc8dbdd1	-0.017302426
128	0xbd29e408	-0.041477233
129	0xbd2c99fb	-0.042139035
130	0xbd7dd862	-0.061973937
131	0xb9a2dbb0	-0.00031062728
132	0xbdabcc1c	-0.0838854
133	0x3d0fe20f	0.035127696
134	0xbe06f1c8	-0.1317817
135	0xbdef6a91	-0.11690248
136	0xbe09352b	-0.13399188
137	0xbd9cd3de	-0.07657598
138	0x3de964b7	0.11396163
139	0x3dcbd766	0.09953193
140	0xbdfc60d8	-0.12323159
141	0xba647510	-0.00087149534
142	0xbe027466	-0.12739715
143	0x3c2f5724	0.010701928
144	0x3db21103	0.08694651
145	0x3d2247b7	0.039619174
146	0xbe062e72	-0.13103655
147	0xbddd6c32	-0.10811652
148	0xbb0d8cce	-0.0021598819
149	0x3e1904fd	0.14943309
150	0xbbbb5445	-0.005716833
151	0xbe0dc585	-0.13844879
152	0x3e14e101	0.14538957
153	0xbe08d405	-0.13362129
154	0xbe0be191	-0.13660266
155	0x3db6bf44	0.089232
156	0x3d446f75	0.047957856
157	0xbd8cb0cf	-0.06869661
158	0xbd878329	-0.06616814
159	0x3e0ba80b	0.13638322
160	0x3dde44c6	0.10852961
161	0xbc4db1f1	-0.012554632
162	0x3d93adbb	0.07210871
163	0x3ca5749f	0.02019721
164	0xbaaf4e80	-0.0013374835
165	0x3dd9b4cb	0.10630187
166	0xbba0e6f5	-0.0049103447
167	0xbcea78c6	-0.028622042
168	0xbd2a6a68	-0.041605383
169	0x3dea1882	0.11430456
170	0x3d6c3fc0	0.057677984
171	0xbcb4bc68	-0.022062495
172	0x3d68f71a	0.05687628
173	0x3cf3f991	0.029782088
174	0x3d642f6b	0.055709284
175	0x3b65f35f	0.0035087687
176	0xbdb0f4af	-0.0864042
177	0xbc0c27d9	-0.008554422
178	0xbb1354cb	-0.002248096
179	0xbda9e912	-0.08296408
180	0x3c288537	0.010285667
181	0xbb3f26d8	-0.002916744
182	0xbdd559ed	-0.104175426
183	0x3db8b587	0.090189986
184	0xbd949aef	-0.07256114
185	0x3e0ea4ff	0.13930129
186	0x3e096ac2	0.13419631
187	0x3cf2eadb	0.029653003
188	0x3e120b15	0.1426204
189	0xbd2f7e58	-0.0428451
190	0xbcaeaeee	-0.021323647
191	0x3a21d3d5	0.0006173228
192	0xbde02d31	-0.109461196
193	0xbbc80c82	-0.0061050067
194	0x3da12c17	0.078697376
195	0xbe0953d1	-0.1341088
196	0x3d907f74	0.0705556
197	0xbdc43084	-0.09579566
198	0xbc2405fc	-0.010011192
199	0x3d9dd0c2	0.07705833
200	0xbd67a970	-0.056558073
201	0x3dfbb7eb	0.12290939
202	0x3de3c256	0.11121051
203	0xbe015c38	-0.12632835
204	0xbda4baca	-0.0804344
205	0x3df999f5	0.12187568
206	0x3c0d6541	0.008630098
207	0xbd63b61c	-0.055593595
208	0x3b3e11a9	0.0029002225
209	0x3dc2775f	0.094954245
210	0xbe0306e8	-0.12795603
211	0xbccfc3ec	-0.025361978
212	0xbd87579a	-0.066085055
213	0x3db83e28	0.0899623
214	0xbddc98ba	-0.10771318
215	0xbd87793b	-0.0661492
216	0x3dac71d0	0.084201455
217	0x3d96983d	0.07353256
218	0x3e132266	0.1436859
219	0xbdc88dce	-0.09792672
220	0x3dbdb877	0.092636995
221	0xbc465469	-0.012105086
222	0x3e0055ce	0.12532732
223	0xbb35aa84	-0.0027720043
224	0x3e0822fd	0.13294597
225	0xbda2d6a8	-0.07951099
226	0xbe1550db	-0.14581625
227	0x3cf0cf39	0.029395686
228	0x3ba0c017	0.0049057114
229	0xbdf4c7e5	-0.11952189
230	0xbdfa4c08	-0.12221533
231	0x3c1dcf13	0.00963189
232	0x3d21cd88	0.03950265
233	0xbc8845b7	-0.016634805
234	0x3c89a3e4	0.016801782
235	0xbb80cb84	-0.003930511
236	0xbda90412	-0.082527295
237	0xbda221bc	-0.079165906
238	0xbe1a3cdf	-0.15062283
239	0x3e0135ef	0.1261823
240	0x3d9642c0	0.0733695
241	0x3dcafc8d	0.099114515
242	0xbe0e6092	-0.13904026
243	0x3db162e0	0.08661437
244	0xbac0409b	-0.0014667691
245	0x3d3d4a7c	0.046213612
246	0xbe03d123	-0.12872748
247	0xbdbca219	-0.09210605
248	0x3deb4289	0.114873
249	0xbd2b2c35	-0.041790206
250	0x3e1bf9ac	0.15231961
251	0xbdb5cc30	-0.08876836
252	0xbc85f0d0	-0.01635018
253	0xbe032244	-0.1280604
254	0x3e0ecd69	0.13945545
255	0x3d469fae	0.048492126

fc.bias f4 [14]
0	0x3b7f1a62	0.0038925637
1	0xbe8e8307	-0.2783434
2	0xbd8f7352	-0.070044175
3	0x3d37839b	0.044803243
4	0x3c63d279	0.013905161
5	0x3c5a74e4	0.013333533
6	0xbdb26abf	-0.087117665
7	0xbcf55407	-0.029947294
8	0x3c8f3e66	0.017485809
9	0x3d9af7a7	0.07566767
10	0xbd489a48	-0.04897526
11	0x3e9ade66	0.30247802
12	0x3d11450c	0.03546624
13	0xbd86ed0f	-0.06588184
