model checkpoints/additive_model.pth (torch, 67460 bytes, 11 tensors)

model_weights f4 [2]
0.5 0.5
00000000: 0000 003f 0000 003f

lstm.lstm.weight_ih_l0 f4 [56, 224]
0.067651 0.051215947 0.2357367 -0.16877684 -0.14436273 -0.01709959 0.1447326 -0.1787447
0.13406372 -0.11207238 -0.25561115 0.19947428 0.10829127 0.0075795352 -0.2511087 0.056224138
0.0826191 0.039939404 -0.18092033 -0.23464428 -0.21585168 -0.13168731 0.17417118 0.107277095
-0.16817443 0.22620973 -0.25633976 0.06889972 0.20648944 0.120961785 0.016822338 -0.10769732
0.030126244 0.16340008 0.23582557 -0.050045982 0.13673717 0.11130664 0.13310131 -0.19902977
0.10109547 -0.23577248 0.11691743 0.26372215 0.043889612 0.23531792 -0.17104465 -0.10805556
0.21311653 0.2253969 -0.13783287 -0.060380757 0.15841848 0.098694086 0.04686001 -0.23285799
-0.022432163 -0.111848116 0.17694318 -0.20112942 -0.021335125 -0.17346969 0.13252541 -0.23380184
-0.21484971 -0.10600582 0.26001242 -0.18155284 0.2672452 0.11985567 -0.1773569 0.058942944
0.16596189 -0.029455572 -0.073501736 0.079925895 0.101154625 0.0132751465 -0.19185433 -0.043896645
0.23289141 0.037827045 -0.21974784 -0.1509821 0.07004532 -0.2185839 -0.045489863 0.11950937
-0.1760184 0.073412925 -0.06459017 -0.15447593 -0.20838048 -0.07241799 0.08992705 0.19039616
-0.012852073 0.09664148 -0.23717524 -0.097126484 0.12930182 0.0023796558 0.20393643 -0.1451067
-0.077828646 0.093036175 0.050005257 0.2113618 0.18511543 -0.24500188 -0.032932267 -0.2618025
0.14068899 -0.15983999 -0.020116553 -0.20356095 0.2384915 -0.059770957 -0.15938301 0.044812053
0.026531816 0.010808259 -0.16483071 0.12130192 -0.075129375 0.1709283 0.21313566 0.07425696
-0.2546733 0.1524413 -0.23911801 0.21423635 0.037277818 0.20542139 0.22244665 -0.17167175
0.084316105 -0.2066277 0.027769595 0.252651 -0.13968985 -0.15734687 0.20493072 -0.02327308
0.17310601 -0.22310287 0.120814025 -0.21320443 -0.16959068 0.2373521 -0.24399555 -0.056785002
0.1712484 -0.21831433 -0.13174438 0.059103996 -0.24452634 -0.073352724 0.004377395 -0.014685273
-0.26324978 -0.13443218 0.077506095 -0.24088429 0.078119814 0.07410169 0.23301241 -0.09813279
0.12286514 0.0959093 0.08093533 -0.07621992 -0.119128704 -0.055492073 -0.10046984 0.09782642
-0.24921925 0.08741218 -0.1637887 0.06728345 0.21970606 0.24367544 -0.26440004 -0.19935298
-0.07894869 0.090078324 0.00852263 0.25269058 -0.14761394 0.15057775 0.22043377 -0.002522856
0.112534374 0.22121108 -0.0065472126 -0.20487237 -0.0042545795 0.21015432 -0.20930359 -0.2252804
-0.08366853 0.14713052 0.22637254 -0.16563106 -0.060677662 -0.17133269 0.00139305 -0.1731821
-0.2353128 -0.06772864 0.17130205 -0.13733763 -0.16240413 -0.121662915 0.13736838 -0.107702166
-0.22803795 -0.011797428 -0.23174815 -0.21528327 -0.04612592 -0.17122161 0.25139496 0.09730011
0.09854859 0.24562636 0.16180763 0.066035 0.06618899 -0.23209968 -0.14515421 -0.14966723
-0.22139752 0.2641938 0.13824111 -0.18239668 -0.23654652 -0.08769098 0.0029875636 0.06657335
0.114370376 0.002660364 0.19205216 0.26342407 0.07886416 0.10736081 -0.18536673 0.19251892
-0.25066003 0.23938671 -0.2249503 -0.16155319 0.1756944 -0.05107133 -0.21067509 0.13047537
00000000: 9c8c 8a3d d0c7 513d f664 713e d6d3 2cbe
00000010: d3d3 13be 7014 8cbc c834 143e da08 37be
00000020: 0048 093e 3486 e5bd 77df 82be fc42 4c3e
00000030: d0c7 dd3d c05d f83b 5291 80be 484b 663d
00000040: 3434 a93d 8097 233d 2e43 39be 9746 70be
00000050: 3908 5dbe 0ad9 06be ee59 323e 18b4 db3d
00000060: eb35 2cbe 86a3 673e f73e 83be 4c1b 8d3d
00000070: f871 533e d0ba f73d 00cf 893c 6a90 dcbd
00000080: 50cb f63c 5a52 273e 427c 713e 04fd 4cbd
00000090: d404 0c3e bcf4 e33d b64b 083e 76ce 4bbe
000000a0: 240b cf3d 576e 71be 6872 ef3d 9706 873e
000000b0: 98c5 333d 2ef7 703e 5426 2fbe 3c4c ddbd
000000c0: 383b 5a3e 72ce 663e 0f24 0dbe d051 77bd
000000d0: 7438 223e 2020 ca3d 48f0 3f3d 5372 6ebe
000000e0: a8c3 b7bc a010 e5bd 9830 353e dff4 4dbe
000000f0: 00c7 aebc 0aa2 31be beb4 073e c069 6fbe
00000100: 9001 5cbe 9419 d9bd 5920 853e fde8 39be
00000110: 5dd4 883e e476 f53d 0c9d 35be 286e 713d
00000120: eaf1 293e d04c f1bc 1488 96bd 30b0 a33d
00000130: 282a cf3d 0080 593c 7675 44be f8cc 33bd
00000140: 167b 6e3e 88f0 1a3d 9405 61be 0d9b 1abe
00000150: ec73 8f3d 75d4 5fbe 9453 3abd 54c1 f43d
00000160: 2b3e 34be 8459 963d da47 84bd f02e 1ebe
00000170: b161 55be e24f 94bd ac2b b83d 36f7 423e
00000180: 8091 52bc f8eb c53d 11de 72be 40ea c6bd
00000190: b267 043e 00f4 1b3b b6d4 503e da96 14be
000001a0: a064 9fbd c089 be3d 50d2 4c3d 3a6f 583e
000001b0: e68e 3d3e c6e1 7abe fce3 06bd fa0a 86be
000001c0: c610 103e 18ad 23be 78cb a4bc 4872 50be
000001d0: 1e37 743e 64d2 74bd 4d35 23be d88c 373d
000001e0: 4059 d93c 2015 313c 62c9 28be 246d f83d
000001f0: 6edd 99bd d407 2f3e 3c40 5a3e 0814 983d
00000200: 8a64 82be 9219 1c3e 5adb 74be c660 5b3e
00000210: a0b0 183d fc59 523e 0ec9 633e b8ca 2fbe
00000220: ecad ac3d 3696 53be 107d e33c 795b 813e
00000230: db0a 0fbe 8a1f 21be 5cd9 513e 30a7 bebc
00000240: b442 313e 1475 64be 586d f73d 4352 5abe
00000250: 2ea9 2dbe 6e0c 733e f8d9 79be 6497 68bd
00000260: be5b 2f3e cb8d 5fbe 00e8 06be 0817 723d
00000270: 1d65 7abe f439 96bd 4070 8f3b 809a 70bc
00000280: adc8 86be 97a8 09be 84bb 9e3d 5faa 76be
00000290: 48fd 9f3d a0c2 973d ce9a 6e3e d8f9 c8bd
000002a0: b8a0 fb3d 186c c43d 6cc1 a53d 3019 9cbd
000002b0: c0f9 f3bd a84b 63bd 22c3 cdbd 3859 c83d
000002c0: 5533 7fbe 2805 b33d 3ab8 27be e8cb 893d
000002d0: a0fa 603e 0e86 793e 715f 87be 3023 4cbe
000002e0: daaf a1bd fc7a b83d 80a2 0b3c a960 813e
000002f0: 1c28 17be 0e31 1a3e 64b9 613e 8056 25bb
00000300: 6c78 e63d 2885 623e 008a d6bb 10ca 51be
00000310: 006a 8bbb b232 573e ae53 56be e8af 66be
00000320: 685a abbd 62a9 163e 34ce 673e 309b 29be
00000330: 2489 78bd d671 2fbe 0097 b63a a656 31be
00000340: d7f5 70be 50b5 8abd ce69 2f3e 3ca2 0cbe
00000350: 454d 26be 682a f9bd 4caa 0c3e f492 dcbd
00000360: c882 69be 004a 41bc 634f 6dbe 3873 5cbe
00000370: 88ee 3cbd b854 2fbe d7b6 803e 4845 c73d
00000380: d8d3 c93d 7a85 7b3e e6b0 253e 5c3d 873d
00000390: 188e 873d 8aab 6dbe 4ea3 14be 5e42 19be
000003a0: 08b6 62be 6944 873e 148f 0d3e 32c6 3abe
000003b0: 4039 72be 5497 b3bd 00cb 433b 9c57 883d
000003c0: 043b ea3d 8059 2e3b 52a9 443e 85df 863e
000003d0: 8883 a13d fcdf db3d c7d0 3dbe ae23 453e
000003e0: 8356 80be ca21 753e 5f59 66be 336e 25be
000003f0: 3ce9 333e 2c30 51bd 36bb 57be 569b 053e

lstm.lstm.weight_hh_l0 f4 [56, 14]
-0.06272371 -0.04361452 0.08850947 0.010467917 0.1529527 -0.22196622 0.25573108 0.23166418
-0.2332463 0.040320218 0.2466546 -0.12541096 0.25601193 -0.14006937 -0.20884974 0.02492252
0.25133684 0.050892025 -0.14380917 -0.10927373 0.0140117705 0.04732403 0.076337665 0.23548105
0.15246737 -0.100251704 0.121026844 -0.07456207 -0.12852855 -0.18773802 0.13934082 0.12797168
-0.025293186 -0.16706264 -0.11510475 0.107007176 0.21251252 -0.092185035 -0.22592086 -0.18872935
-0.0022809505 0.25774094 0.03504166 -0.106536984 -0.036708742 0.1710073 -0.016739905 -0.246156
0.12769172 -0.100627646 -0.23562746 -0.020987496 0.11062792 0.05584559 -0.23251021 0.20734683
0.16736254 -0.18940286 -0.2570148 -0.16272162 -0.25671792 0.074575305 -0.25956517 -0.24192584
-0.15142027 -0.07524927 -0.025565475 0.1542801 -0.1342856 0.13815463 0.11861935 0.19694352
0.128963 -0.042292625 0.064421415 -0.25279447 0.23975143 -0.24203096 -0.20608088 -0.11923741
-0.19362068 -0.042808115 -0.037245482 -0.26185632 -0.03718023 0.18663374 -0.009590805 0.08790815
0.07518697 -0.07420285 0.14821017 -0.16872433 0.26669648 -0.12715991 -0.22247642 0.024683714
0.12763765 -0.028777689 -0.121496856 0.18077362 0.05201879 -0.20403588 -0.036250845 -0.23473817
-0.23485067 0.11316919 0.09609231 0.09286213 0.21933705 0.046958297 -0.11490829 -0.12420547
0.053280473 0.22506168 -0.18352985 0.12301394 0.037622124 -0.09111966 0.04645908 -0.009218663
0.22386158 0.26383516 0.08523932 -0.1512666 -0.11219987 -0.14200541 -0.17947292 0.12400371
0.10848063 -0.059348688 -0.14578804 -0.24282622 0.18946445 -0.20578437 -0.18132105 -0.027148247
0.16988856 0.26494625 -0.14210074 0.23787555 0.09725532 0.24328896 0.18653652 0.24304166
0.26118574 0.013623089 0.05587727 0.01459834 -0.23394196 -0.08877218 0.063450724 0.1783939
0.13724497 -0.011109769 0.16412127 0.14880967 0.20515785 -0.20985429 0.23913667 -0.14794908
-0.050146595 0.047249228 0.19035086 0.15338877 -0.007046461 -0.021841064 -0.23346014 0.04571879
0.18072903 0.0053679347 -0.018264994 0.08300799 -0.19703314 0.11254805 0.17369738 -0.093026355
-0.052069705 0.22654459 -0.12548162 0.21097091 0.19275254 -0.25188026 -0.030926242 -0.26702762
-0.105641246 -0.02396731 0.024501115 0.121562004 -0.10107939 -0.19126362 0.12510625 0.234683
0.14704129 0.040133685 0.024346799 -0.22705914 0.13139156 -0.25718477 -0.26500338 -0.2065174
0.22557488 0.11208522 -0.21321148 0.14145392 -0.16122335 -0.07196057 -0.10185245 -0.21628307
-0.037584215 0.23326549 0.20570979 -0.04626766 -0.20321141 0.16424796 -0.25437382 -0.21815735
0.24859807 -0.21746421 0.11950496 -0.22897635 -0.19537066 -0.105252415 0.23113021 0.073182285
-0.06919356 -0.09525375 -0.20992106 0.010835499 0.07265329 0.23593584 0.063180685 0.26055863
-0.1186198 0.15988249 -0.25509205 -0.12813926 -0.06300023 0.1904364 -0.04763201 -0.07100436
-0.03119561 0.20088321 -0.20138459 0.07843202 -0.14172354 0.103167 -0.08963871 0.04830748
-0.24690613 -0.14879924 0.14095691 -0.14008941 -0.015982598 -0.11929001 0.16701925 -0.26356554
00000000: 4a75 80bd 24a5 32bd 7444 b53d a081 2b3c
00000010: a29f 1c3e 1d4b 63be 2fef 823e 6039 6d3e
00000020: 1ed8 6ebe d026 253d 0693 7c3e bb6b 00be
00000030: ff13 833e 586e 0fbe b5dc 55be 502a cc3c
00000040: 39af 803e 2874 503d b642 13be e8ca dfbd
00000050: a091 653c d8d6 413d ec56 9c3d f221 713e
00000060: 6820 1c3e c450 cdbd ecdc f73d 00b4 98bd
00000070: fd9c 03be 653e 40be 5caf 0e3e 020b 033e
00000080: a833 cfbc 7812 2bbe 0abc ebbd 9426 db3d
00000090: e29c 593e 82cb bcbd cc57 67be 4442 41be
000000a0: 007c 15bb 9ff6 833e d887 0f3d 1030 dabd
000000b0: e85b 16bd 8a1c 2f3e 2022 89bc 5210 7cbe
000000c0: 9ec1 023e de15 cebd 5348 71be f8ed abbc
000000d0: e490 e23d 58be 643d 2817 6ebe ba52 543e
000000e0: 1661 2b3e d3f2 41be 7297 83be 7fa0 26be
000000f0: 8870 83be f0ba 983d bae5 84be 68bb 77be
00000100: ea0d 1bbe 4a1c 9abd b06e d1bc 9afb 1d3e
00000110: 2a82 09be 6878 0d3e b4ee f23d 90ab 493e
00000120: e00e 043e 083b 2dbd 60ef 833d 476e 81be
00000130: 6681 753e f7d6 77be de06 53be be32 f4bd
00000140: 8044 46be 9057 2fbd b88e 18bd 0812 86be
00000150: 4c4a 18bd ea1c 3f3e c022 1dbc 3009 b43d
00000160: a0fb 993d aaf7 97bd 68c4 173e 12c6 2cbe
00000170: 718c 883e 3536 02be dcd0 63be 8035 ca3c
00000180: 72b3 023e 30bf ebbc 58d3 f8bd b81c 393e
00000190: a811 553d c8ee 50be c47b 14bd 345f 70be
000001a0: b27c 70be 40c5 e73d 0ccc c43d 802e be3d
000001b0: e499 603e 5857 403d 0a55 ebbd 705f febd
000001c0: a03c 5a3d 9276 663e 40ef 3bbe bcee fb3d
000001d0: a819 1a3d f29c babd e04b 3e3d e009 17bc
000001e0: f83b 653e 6715 873e f491 ae3d a2e5 1abe
000001f0: 0cc9 e5bd de69 11be c0c7 37be a8f5 fd3d
00000200: 182b de3d 9c17 73bd 7649 15be 70a7 78be
00000210: f802 423e 23b9 52be 3aac 39be 0066 debc
00000220: 44f7 2d3e 09a7 873e db82 11be a695 733e
00000230: cc2d c73d be20 793e 6e03 3f3e eadf 783e
00000240: 23ba 853e 6033 5f3c 90df 643d e02d 6f3c
00000250: 7b8e 6fbe 30ce b5bd 74f2 813d e4ac 363e
00000260: f289 0c3e c005 36bc 680f 283e 9061 183e
00000270: e614 523e 0be4 56be 3ee0 743e f77f 17be
00000280: 8466 4dbd 6888 413d 56eb 423e f211 1d3e
00000290: 00e6 e6bb 08ec b2bc 2d10 6fbe a043 3b3d
000002a0: 0811 393e 80e5 af3b 78a0 95bc 1800 aa3d
000002b0: 0ec3 49be 987f e63d badd 313e 9a84 bebd
000002c0: 0b47 55bd 4efb 673e 417e 00be c208 583e
000002d0: ec60 453e 73f6 80be 0859 fdbc d8b7 88be
000002e0: 705a d8bd 1857 c4bc 90b6 c83c 80f5 f83d
000002f0: b602 cfbd 9cda 43be da1b 003e be50 703e
00000300: fe91 163e 3863 243d f072 c73c 3182 68be
00000310: 828b 063e b9ad 83be 86ae 87be 4c79 53be
00000320: 1afd 663e f08c e53d 1c54 5abe 4cd9 103e
00000330: bc17 25be 1060 93bd 0498 d0bd 4f79 5dbe
00000340: e8f1 19bd 26dd 6e3e 96a5 523e 2883 3dbd
00000350: a716 50be 9e30 283e 493d 82be a464 5fbe
00000360: 7e90 7e3e f0ae 5ebe 04bf f43d c778 6abe
00000370: 3f0f 48be 948e d7bd 66ad 6c3e 98e0 953d
00000380: 5ab5 8dbd 6614 c3bd 8cf5 56be 6087 313c
00000390: 40cb 943d 2a99 713e e064 813d f167 853e
000003a0: f0ee f2bd 3cb8 233e 6d9b 82be f036 03be
000003b0: 4406 81bd c201 433e c819 43bd bc6a 91bd
000003c0: f08d ffbc 54b4 4d3e c337 4ebe f8a0 a03d
000003d0: fa1f 11be 3849 d33d 8094 b7bd 10de 453d
000003e0: f6d4 7cbe d45e 18be 0257 103e 9973 0fbe
000003f0: f0ed 82bc 524e f4bd 1807 2b3e 10f2 86be

lstm.lstm.bias_ih_l0 f4 [56]
0.07751948 0.123523474 -0.19399354 -0.17339087 0.20549867 0.012353241 0.016841978 -0.08112253
0.251691 -0.12510453 0.072677046 0.026124656 0.19581732 0.22209868 -0.11387871 -0.0049405396
-0.2041299 -0.07723592 -0.14312455 0.02017489 0.14875227 -0.124180645 -0.14814423 0.14548987
0.20145118 -0.014937133 0.048428386 -0.0586233 0.067391604 0.18072197 0.020536989 -0.010776311
0.20831844 -0.009070814 -0.17710564 0.009466231 -0.1579848 0.24236009 0.11826426 -0.012412101
0.13956895 -0.018858105 -0.0086919665 0.17485082 0.14937478 0.20177862 -0.20211262 -0.16055031
-0.13667102 0.08640662 -0.11718632 0.18599099 -0.1351125 0.16972765 -0.08584756 0.09272206
00000000: 88c2 9e3d e0f9 fc3d 3ea6 46be 608d 31be
00000010: 3e6e 523e 4065 4a3c 30f8 893c 9223 a6bd
00000020: a5dd 803e 671b 00be b4d7 943d 6003 d63c
00000030: 5684 483e d66d 633e 3e39 e9bd 40e4 a1bb
00000040: 6e07 51be de2d 9ebd 3e8f 12be d045 a53c
00000050: 8452 183e 6c52 febd 1fb3 17be 4cfb 143e
00000060: 3849 4e3e e0ba 74bc d85c 463d fc1e 70bd
00000070: 9c04 8a3d 2e0f 393e 303d a83c 208f 30bc
00000080: 6e51 553e c09d 14bc 2e5b 35be 4018 1b3c
00000090: c4c6 21be 3e2d 783e 8834 f23d 205c 4bbc
000000a0: 2aeb 0e3e 507c 9abc c068 0ebc 180c 333e
000000b0: b4f5 183e 0e9f 4e3e 9cf6 4ebe 4d67 24be
000000c0: 7df3 0bbe f4f5 b03d 62ff efbd 6c74 3e3e
000000d0: ee5a 0abe 16cd 2d3e d8d0 afbd 10e5 bd3d

lstm.lstm.bias_hh_l0 f4 [56]
-0.1962404 0.13190636 -0.004108846 -0.09736617 -0.077043116 -0.2586047 0.12757856 -0.26397434
-0.047834605 0.049107075 0.0029211938 -0.24292429 0.19317847 -0.013150334 -0.21924044 -0.14193566
-0.19091313 0.21601844 -0.2159544 -0.14362225 0.24606732 0.20591891 -0.25082007 0.24859199
-0.08304818 -0.12982367 0.17141676 -0.09908885 -0.17059979 0.09731263 -0.011227697 0.04688385
-0.2021634 -0.026253581 -0.011596799 -0.18796882 0.23148388 0.07365939 0.09758288 -0.13589793
0.022923082 -0.12218554 -0.12573245 -0.20773269 0.07977468 0.07694769 0.22248825 -0.055028547
-0.19988808 -0.16632588 0.033783913 0.23914555 -0.08106142 0.25421306 0.25042722 0.0059875036
00000000: 3ef3 48be 7612 073e 80a3 86bb ea67 c7bd
00000010: c8c8 9dbd d667 84be f4a3 023e a527 87be
00000020: 38ee 43bd 8024 493d 8071 3f3b 25c1 78be
00000030: 94d0 453e 8074 57bc 9180 60be 9557 11be
00000040: bb7e 43be f033 5d3e 2623 5dbe b611 13be
00000050: 12f9 7b3e 68dc 523e 7d6b 80be e68e 7e3e
00000060: 2a15 aabd 7ff0 04be e087 2f3e 18ef cabd
00000070: b6b1 2ebe d84b c73d 60f4 37bc 4809 403d
00000080: ec03 4fbe c011 d7bc 8000 3ebc e67a 40be
00000090: 1c0a 6d3e bcda 963d 88d9 c73d d428 0bbe
000000a0: 30c9 bb3c 6a3c fabd 02c0 00be e1b7 54be
000000b0: e860 a33d c096 9d3d f6d3 633e 9d65 61bd
000000c0: 76af 4cbe 5551 2abe 0061 0a3d 92e2 743e
000000d0: 8803 a6bd 3728 823e ff37 803e d232 c43b

lstm.fc.weight f4 [14, 140]
0.068347536 0.020413531 -0.060312483 0.025193498 0.067705505 0.022521172 0.0579959 0.018456515
0.047245696 -0.062339634 -0.053252038 -0.0024046528 -0.0022529159 0.054605838 -0.035078354 -0.027778968
-0.00715636 0.0035561998 0.024496477 0.047703654 -0.019446498 -0.06816895 -0.011396921 -0.06698003
-0.0636454 -0.0064298473 -0.007832747 -0.049345687 -0.0752764 0.07030976 -0.007505813 -0.013993842
-0.08241422 -0.062753506 0.072402544 0.009886196 0.003597531 0.04032986 0.03798079 0.0010386265
0.0052959756 0.0007191148 0.069114245 -0.05573587 0.066400215 0.030399244 0.07463443 0.05365103
0.003171354 -0.022379754 -0.030881714 0.07576162 -0.046871033 -0.00871061 0.0018934151 -0.027288068
-0.047269158 0.06321091 0.018122233 -0.046555974 -0.07394439 0.06372158 0.06186942 0.011398375
0.018807048 -0.006450343 -0.008302736 -0.0021794753 0.0010442376 0.0007427389 -0.034577828 -0.007382972
0.05459216 -0.008252214 0.0048967893 0.051820558 -0.045119062 0.06182547 -0.028441658 -0.075600825
0.048637122 0.003992424 0.005316638 -0.02912568 0.01576267 0.0794329 0.04481728 0.020985724
-0.03337835 -0.07663002 -0.020559128 -0.025855912 0.0018045871 0.016534612 0.034314733 0.0147522
-0.00803941 0.0007166169 -0.03741837 0.023494177 -0.06081857 -0.0023100986 0.0761067 0.022216307
-0.00018168046 0.012455387 0.029886913 0.032058813 0.054494765 0.0009487619 9.6092335e-05 -0.013159739
0.02379516 -0.0047056777 -0.012183998 0.025262246 0.023002286 0.08296807 -0.060153253 0.046995036
0.028979197 0.017528184 -0.012795937 -0.004855846 -0.012823162 0.0104473885 -0.0039667566 -0.073523596
-0.040400572 -0.016029045 0.011464916 -0.022555059 -0.03907301 -0.04564791 -0.03742991 -0.0014223317
-0.05866711 -0.004482182 0.010010847 0.017198615 -0.010288967 -0.007313096 -0.050244737 -0.040673394
-0.015068811 0.014262881 -0.04290081 -0.008828101 0.035417523 -0.012390062 -0.050924525 -0.0065676384
-0.0009893323 0.055294033 -0.049637664 -0.0026690646 -0.0037822034 -0.016879173 -0.047599964 0.02432064
-0.08305021 -0.05143956 -0.026010519 -0.010636801 0.017310062 0.01346714 0.0024340332 -0.058002956
-0.004718326 0.056748986 -0.062357247 0.02525521 -0.055773176 0.051158357 0.044820514 0.053726684
0.030154958 0.058876477 0.00859776 -0.008271743 -0.00450159 -0.029505035 0.011241566 -0.060634743
-0.04592928 0.0047182497 0.002704216 0.043590147 -0.03167793 0.081928656 -0.04572101 -0.03236946
-0.04609301 -0.0040434664 -0.0018864268 -0.020706998 0.017094914 0.052686628 0.015895497 -0.016320132
0.050028916 -0.05432852 0.06498654 -0.015722385 0.03869336 0.008363925 -0.023634255 -0.0002437696
0.00152262 0.061429065 0.060013738 -0.017360894 0.032802545 0.02212273 -0.07220255 -0.03975885
0.024815619 0.07798493 -0.043822777 0.06722527 -0.020424262 -0.0122231385 -0.0037783256 -0.061291195
0.058601387 -0.060859222 0.051057126 0.01525765 0.056522466 -0.06204737 -0.014731471 -0.022930428
0.043200217 0.06096937 0.06038051 0.0097749885 -0.010064928 -0.033705566 -0.06683764 0.074371375
0.036359206 0.021645399 -0.038427897 -0.025199322 -0.017396469 -0.033419326 -0.02704719 0.06829652
-0.04341407 -0.013143388 -0.006049559 -0.019512411 0.059791192 -0.010445253 -0.056346916 -0.012672143
00000000: cbf9 8b3d 473a a73c 390a 77bd 9862 ce3c
00000010: 2fa9 8a3d 527e b83c 1c8d 6d3d 1e32 973c
00000020: b484 413d d857 7fbd cf1e 5abd 6197 1dbb
00000030: a8a5 13bb 5faa 5f3d 52ae 0fbd b890 e3bc
00000040: e67f eabb 220f 693b d6ac c83c e864 433d
00000050: 434e 9fbc 2a9c 8bbd 27ba 3abc d32c 89bd
00000060: 8558 82bd 78b1 d2bb ec54 00bc b41e 4abd
00000070: 832a 9abd 90fe 8f3d 53f3 f5bb 6d46 65bc
00000080: c9c8 a8bd e984 80bd c947 943d b6f9 213c
00000090: 8ec4 6b3b ec30 253d bf91 1b3d 8622 883a
000000a0: dd89 ad3b fa82 3c3a c58b 8d3d 4c4b 64bd
000000b0: d6fc 873d d607 f93c f0d9 983d 2fc1 5b3d
000000c0: 7ed6 4f3b bf55 b7bc a6fb fcbc e928 9b3d
000000d0: d7fb 3fbd f2b6 0ebc 782c f83a 3a8b dfbc
000000e0: 4e9d 41bd b974 813d 1475 943c 7ab1 3ebd
000000f0: 2870 97bd 7680 823d ca6a 7d3d 40c0 3a3c
00000100: 3d11 9a3c 665d d3bb 3308 08bc 87d5 0ebb
00000110: cdde 883a 5db4 423a 7ba1 0dbd dcec f1bb
00000120: 079c 5f3d 4b34 07bc 3f75 a03b cb41 543d
00000130: c4ce 38bd b43c 7d3d 7bfe e8bc 9bd4 9abd
00000140: b837 473d e1d2 823b 3137 ae3b fa98 eebc
00000150: b720 813c b7ad a23d 5392 373d 41ea ab3c
00000160: bdb7 08bd 33f0 9cbd 9e6b a8bc c7cf d3bc
00000170: e587 ec3a 9873 873c 9b8d 0c3d 36b3 713c
00000180: bbb7 03bc 59db 3b3a 0144 19bd dc76 c03c
00000190: e51c 79bd 0665 17bb d4dd 9b3d f9fe b53c
000001a0: 7a81 3eb9 ae11 4c3c 66d5 f43c 1a50 033d
000001b0: e735 5f3d 55b6 783a 2e85 c938 f29b 57bc
000001c0: 11ee c23c 1632 9abb 649f 47bc c5f2 ce3c
000001d0: 4a6f bc3c 2aeb a93d 4263 76bd de7d 403d
000001e0: c865 ed3c 4497 8f3c 0da6 51bc ca1d 9fbb
000001f0: 3d18 52bc 862b 2b3c 91fb 81bb 8a93 96bd
00000200: 127b 25bd 584f 83bc 58d7 3b3c 63c5 b8bc
00000210: 050b 20bd 4ef9 3abd 1b50 19bd 886d baba
00000220: ec4c 70bd 45df 92bb 8904 243c 1ce4 8c3c
00000230: 0e93 28bc b2a2 efbb 6dcd 4dbd 2599 26bd
00000240: 2de3 76bc dcae 693c c2b8 2fbd bda3 10bc
00000250: f711 113d b0ff 4abc 3c96 50bd 5835 d7bb
00000260: 7cac 81ba ff7b 623d dd50 4bbd 79eb 2ebb
00000270: d8de 77bb 3146 8abc 2ef8 42bd 143c c73c
00000280: 3a16 aabd 4ab2 52bd 0314 d5bc fa45 2ebc
00000290: d5cd 8d3c 47a5 5c3c 4d84 1f3b 8294 6dbd
000002a0: 309c 9abb a071 683d 506a 7fbd 04e4 ce3c
000002b0: 6a72 64bd 6d8b 513d b795 373d 8310 5c3d
000002c0: 8807 f73c 7628 713d 9fdd 0c3c 3486 07bc
000002d0: 1382 93bb 8bb4 f1bc 8c2e 383c 235c 78bd
000002e0: 5720 3cbd 8c9b 9a3b 3739 313b 958b 323d
000002f0: b8c0 01bd 36ca a73d f445 3bbd d795 04bd
00000300: 06cc 3cbd 0e7f 84bb fb41 f7ba b9a1 a9bc
00000310: a20a 8c3c efcd 573d 4637 823c ccb1 85bc
00000320: 1feb 4c3d 9587 5ebd aa17 853d 3bcc 80bc
00000330: ee7c 1e3d d808 093c a09c c1bc 679c 7fb9
00000340: a692 c73a 0b9d 7b3d f7d0 753d 6f38 8ebc
00000350: f65b 063d ba3a b53c eede 93bd 2dda 22bd
00000360: 204a cb3c 90b6 9f3d 837f 33bd 67ad 893d
00000370: c850 a7bc 8f43 48bc c99d 77bb 7a0c 7bbd
00000380: 0208 703d 8547 79bd 4721 513d 39fb 793c
00000390: 1a84 673d 6225 7ebd 455c 71bc 98d8 bbbc
000003a0: b6f2 303d 05bb 793d 8e51 773d 4627 203c
000003b0: 5ee7 24bc d90e 0abd 2ce2 88bd 0550 983d
000003c0: 64ed 143d b151 b13c 9266 1dbd cf6e cebc
000003d0: 0a83 8ebc b4e2 08bd 1292 ddbc 0cdf 8b3d
000003e0: f4d2 31bd 5d57 57bc 613b c6bb 7ed8 9fbc
000003f0: 9ce7 743d 9122 2bbc 06cc 66bd d29e 4fbc

lstm.fc.bias f4 [14]
0.02249766 0.0055888398 -0.017762236 -0.025934128 -0.082664065 -0.04927475 -0.020570833 0.03720919
-0.0011350645 -0.02613882 0.010619951 -0.05989482 -0.022669904 -0.0482265
00000000: 034d b83c 9622 b73b 1c82 91bc cf73 d4bc
00000010: c74b a9bd 52d4 49bd 2a84 a8bc aa68 183d
00000020: 72c6 94ba 1421 d6bc 4eff 2d3c 4554 75bd
00000030: 3cb6 b9bc 2789 45bd

gcn.gc1.weight f4 [16, 3]
0.0 0.0 0.0 0.0 0.0 0.0 0.0 0.0
0.0 0.0 0.0 0.0 0.0 0.0 0.0 0.0
0.0 0.0 0.0 0.0 0.0 0.0 0.0 0.0
0.0 0.0 0.0 0.0 0.0 0.0 0.0 0.0
0.0 0.0 0.0 0.0 0.0 0.0 0.0 0.0
0.0 0.0 0.0 0.0 0.0 0.0 0.0 0.0
00000000: 0000 0000 0000 0000 0000 0000 0000 0000
00000010: 0000 0000 0000 0000 0000 0000 0000 0000
00000020: 0000 0000 0000 0000 0000 0000 0000 0000
00000030: 0000 0000 0000 0000 0000 0000 0000 0000
00000040: 0000 0000 0000 0000 0000 0000 0000 0000
00000050: 0000 0000 0000 0000 0000 0000 0000 0000
00000060: 0000 0000 0000 0000 0000 0000 0000 0000
00000070: 0000 0000 0000 0000 0000 0000 0000 0000
00000080: 0000 0000 0000 0000 0000 0000 0000 0000
00000090: 0000 0000 0000 0000 0000 0000 0000 0000
000000a0: 0000 0000 0000 0000 0000 0000 0000 0000
000000b0: 0000 0000 0000 0000 0000 0000 0000 0000

gcn.gc1.bias f4 [3]
0.011150696 -0.0144959325 -0.009226069
00000000: 69b1 363c 5980 6dbc f028 17bc

gcn.fc.weight f4 [14, 42]
0.124935314 -0.08343379 0.10106106 0.077926725 0.10304281 0.0038719734 -0.08976222 -0.040045734
0.053007245 -0.10490623 0.036457714 -0.061302155 -0.08982859 -0.04879852 -0.006703566 0.03549709
-0.099561386 -0.057728827 -0.039955437 -0.025609475 0.014160381 0.13656105 -0.110645846 -0.15297043
-0.078130566 -0.10175227 0.008779661 -0.04891012 -0.037386138 0.15035887 -0.1310074 -0.15374574
0.14238389 0.05974517 0.07342431 0.11298944 -0.045225635 -0.09186104 -0.11921905 0.031525202
0.04172502 -0.026489986 0.037995663 0.0951673 0.0984387 -0.08440968 -0.14087889 0.06743013
-0.11952454 0.02414151 -0.00041555834 0.09372355 0.06406804 -0.13141638 0.13314548 0.039996248
0.054774676 0.14396885 0.038630795 -0.053526197 0.08055839 0.10024386 -0.09210426 -0.12626994
0.07960432 -0.13795261 -0.13923474 -0.108298995 0.07228274 0.14557993 0.15419196 0.059279907
-0.022230666 0.106146805 0.058187116 0.08949727 0.12607001 0.08366624 0.027106423 -0.016866561
-0.10322697 -0.11391686 0.041026916 0.07087249 -0.12764037 0.152406 0.104966834 -0.040111084
0.09178961 0.1280268 -0.04153681 0.090520345 0.09865941 -0.1395225 -0.03901958 -0.086945586
0.049498875 -0.12294555 -0.030444285 0.0971191 0.08336627 0.029370131 0.05062482 0.020897109
0.13024606 -0.031237537 -0.10683673 -0.089871936 0.00045911674 -0.12186716 -0.08221262 -0.07302091
-0.1295031 -0.08238972 0.00029375879 -0.0061805528 0.084651515 0.100144155 0.09619101 -0.08641388
-0.11348892 0.03287858 0.10902901 -0.027537974 -0.08109571 0.05513469 0.14041491 -0.07618496
-0.09997592 0.042233057 -0.07240281 -0.026831118 -0.122068755 0.028398177 -0.10062048 -0.13579391
-0.085534535 -0.00092582044 0.025210435 0.029498136 -0.015093128 -0.050592154 0.02442742 0.11944376
0.04503595 0.098207034 0.119457796 0.023393283 0.0015371781 -0.010527874 0.012244778 -0.025051693
-0.08003226 -0.10969494 -0.13090149 -0.02484156 0.1464689 -0.12584928 -0.048149962 -0.085734665
-0.13157535 -0.03829975 -0.0051792203 -0.011521204 0.094801575 -0.055015728 0.08541306 0.07367197
-0.12900686 -0.1493592 0.04413671 -0.13630904 0.12887761 0.122126676 -0.049084283 -0.032645077
0.08816821 -0.00941818 -0.061062448 -0.15015167 0.1434082 -0.022776486 0.0039686454 -0.13106959
0.084246084 0.005672761 0.12209702 0.13802463 -0.14395803 -0.111537926 0.08608636 -0.14497977
-0.03199172 -0.03000729 0.060602807 -0.13061242 0.12514684 -0.10801091 0.036793403 0.03562595
0.12694426 -0.14357795 0.112907544 0.06216421 -0.098507605 -0.092104554 0.113230534 0.008821512
-0.14689544 -0.082598686 0.11456792 -0.108283244 0.02063536 0.01971069 -0.047677245 -0.07660323
-0.13988477 0.025466168 0.13544354 -0.02317819 -0.08426117 0.050137654 0.12560327 0.11037017
0.05118616 -0.051103145 0.079999976 0.15308034 0.14772527 -0.01110485 0.07244629 0.066671535
0.09311234 0.105069414 0.1465569 -0.07751641 -0.060818724 0.13656907 0.036512468 0.12460004
-0.09311811 -0.11131369 -0.05121398 -0.11804706 -0.15336366 0.11918704 0.008508354 -0.010056449
-0.0782653 -0.016302183 -0.14395751 -0.102721184 0.05720941 0.11457667 -0.036812883 -0.12506972
00000000: 16de ff3d 56df aabd 1af9 ce3d 0c98 9f3d
00000010: 1c08 d33d efc0 7d3b 41d5 b7bd ff06 24bd
00000020: 201e 593d 14d9 d6bd af54 153d f817 7bbd
00000030: 0df8 b7bd f5e0 47bd 96a9 dbbb 6665 113d
00000040: d7e6 cbbd 1075 6cbd 50a8 23bd f6ca d1bc
00000050: f100 683c a9d6 0b3e 4a9a e2bd 48a4 1cbe
00000060: eb02 a0bd 7e63 d0bd 91d8 0f3c fa55 48bd
00000070: 3522 19bd adf7 193e ce26 06be 866f 1dbe
00000080: 15cd 113e 5ab7 743d 7c5f 963d 0267 e73d
00000090: 843e 39bd a421 bcbd 1e29 f4bd 9220 013d
000000a0: dbe7 2a3d 8701 d9bc 57a1 1b3d 13e7 c23d
000000b0: 3b9a c93d fbde acbd 8e42 10be cf18 8a3d
000000c0: 48c9 f4bd 6ac4 c53c 4cdf d9b9 22f2 bf3d
000000d0: 1b36 833d 0492 06be 4a57 083e 1bd3 233d
000000e0: 695b 603d 926c 133e 533b 1e3d 493e 5bbd
000000f0: ccfb a43d a74c cd3d 29a1 bcbd e84c 01be
00000100: 9707 a33d 7343 0dbe 8d93 0ebe ddcb ddbd
00000110: f908 943d e812 153e 7fe4 1d3e 7dcf 723d
00000120: 161d b6bc 7f63 d93d 9d55 6e3d 584a b73d
00000130: 7f18 013e 3559 ab3d 4a0e de3c be2b 8abc
00000140: a968 d3bd 3e4d e9bd d70b 283d 9925 913d
00000150: 28b4 02be 5210 1c3e daf8 d63d 854b 24bd
00000160: 31fc bb3d 7519 033e 8122 2abd bb62 b93d
00000170: f20d ca3d fcde 0ebe ffd2 1fbd 8710 b2bd
00000180: 55bf 4a3d e0ca fbbd 4b66 f9bc 61e6 c63d
00000190: efbb aa3d a199 f03c f95b 4f3d 6a30 ab3c
000001a0: 395f 053e dde5 ffbc 37cd dabd c70e b8bd
000001b0: 9bb5 f039 7d95 f9bd 175f a8bd fd8b 95bd
000001c0: 769c 04be f1bb a8bd a303 9a39 3c86 cabb
000001d0: c65d ad3d 6118 cd3d cbff c43d c3f9 b0bd
000001e0: e16c e8bd b1ab 063d 9a4a df3d 5197 e1bc
000001f0: 8215 a6bd ead4 613d edc8 0f3e dc06 9cbd
00000200: 2dc0 ccbd 92fc 2c3d ed47 94bd efcc dbbc
00000210: 2fff f9bd 4ba3 e83c 1c12 cebd 8f0d 0bbe
00000220: bb2c afbd c2b2 72ba 1d86 ce3c 13a6 f13c
00000230: 2b49 77bc b839 4fbd 031c c83c ee9e f43d
00000240: 9e77 383d c520 c93d 4aa6 f43d 45a3 bf3c
00000250: 237b c93a 1b7d 2cbc 529e 483c 3539 cdbc
00000260: f4e7 a3bd bea7 e0bd 0a0b 06be 8780 cbbc
00000270: f1fb 153e a2de 00be e538 45bd a895 afbd
00000280: b0bb 06be 33e0 1cbd 73b6 a9bb 6fc3 3cbc
00000290: 5427 c23d 2c58 61bd 0bed ae3d 54e1 963d
000002a0: 601a 04be 9ef1 18be b2c8 343d 9994 0bbe
000002b0: 7ef8 033e 8d1d fa3d 9a0c 49bd d8b6 05bd
000002c0: 8991 b43d b64e 1abc 9e1c 7abd 5cc1 19be
000002d0: 99d9 123e c195 babc 690b 823b 1b37 06be
000002e0: 3689 ac3d 91e2 b93b 010e fa3d 5456 0d3e
000002f0: bc69 13be ff6d e4bd 0c4e b03d 9475 14be
00000300: c009 03bd d9d1 f5bc a63a 783d 43bf 05be
00000310: 7e26 003e d334 ddbd aeb4 163d 84ec 113d
00000320: adfd 013e 1906 13be 123c e73d e69f 7e3d
00000330: 5bbe c9bd 50a1 bcbd 69e5 e73d 1a88 103c
00000340: c26b 16be 8029 a9bd 96a2 ea3d 9bc3 ddbd
00000350: 7d0b a93c 5078 a13c 3749 43bd 27e2 9cbd
00000360: f43d 0fbe 6d9e d03c b6b1 0a3e 30e0 bdbc
00000370: 1f91 acbd 245d 4d3d 259e 003e c109 e23d
00000380: 94a8 513d 8851 51bd 07d7 a33d 18c1 1c3e
00000390: 4b45 173e 1ef1 35bc b85e 943d 168b 883d
000003a0: afb1 be3d a22e d73d 0313 163e ecc0 9ebd
000003b0: 0e1d 79bd c3d8 0b3e 198e 153d 4e2e ff3d
000003c0: b5b4 bebd 6ff8 e3bd c0c5 51bd a8c2 f1bd
000003d0: 5d0b 1dbe 5618 f43d a066 0b3c cec3 24bc
000003e0: 8f49 a0bd 288c 85bc 9969 13be 7c5f d2bd
000003f0: 6a54 6a3d 2ca7 ea3d 1bc9 16bd 4712 00be

gcn.fc.bias f4 [14]
0.020383349 0.011944102 -0.016871672 0.009748463 0.09240409 0.07801564 -0.0022719658 -0.17229569
-0.13599966 -0.06068198 0.085933335 0.09682639 -0.07999612 0.008506078
00000000: fbfa a63c 32b1 433c 7636 8abc 04b8 1f3c
00000010: 5b3e bd3d aac6 9f3d 43e5 14bb 486e 30be
00000020: 7f43 0bbe ab8d 78bd d1fd af3d ea4c c63d
00000030: 01d5 a3bd 145d 0b3c
