model checkpoints/sequential_model.pth (torch, 12175 bytes, 8 tensors)

lstm.lstm.weight_ih_l0 f4 [56, 16]
0	0x39667800	0.00021979213
1	0xbe6966c2	-0.22793105
2	0xbdc53c1c	-0.096306056
3	0xbe1d9876	-0.1539019
4	0x3e58ff92	0.21191242
5	0x3e16f066	0.14740142
6	0xbd32eed8	-0.04368481
7	0xbdbc6d18	-0.092004955
8	0x3e66f162	0.22553018
9	0xbdc4f4ca	-0.09617002
10	0x3e394094	0.18091041
11	0xbda2d824	-0.07951382
12	0x3db87e64	0.09008482
13	0x3d9dcc8c	0.0770503
14	0xbc078320	-0.008271009
15	0x3c972040	0.018447995
16	0x3de1f180	0.110323906
17	0xbe145a7c	-0.14487642
18	0xbd84db32	-0.06487121
19	0x3de42870	0.11140525
20	0x3e7bca3a	0.24588862
21	0x3e21f4b4	0.15816003
22	0xbe62261b	-0.22084849
23	0xbddc3260	-0.10751796
24	0x3d917928	0.07103187
25	0x3e7550d6	0.23956618
26	0xbda88be8	-0.0822981
27	0xbd1886a4	-0.03723778
28	0xbe26c2be	-0.16285226
29	0xbe784820	-0.24246264
30	0x3e59c22c	0.21265477
31	0xbc5a2960	-0.013315529
32	0x3d64a190	0.05581814
33	0xbd838c8e	-0.06423293
34	0x3de5cc64	0.11220625
35	0xbe139b97	-0.14414822
36	0x3de8025c	0.11328575
37	0xbdeb2acc	-0.11482772
38	0xbe57a88a	-0.21060386
39	0xbe0dc654	-0.13845187
40	0xbe05c86b	-0.13064735
41	0xbe599c3c	-0.21251005
42	0x3e2397da	0.15975896
43	0xbe365aea	-0.17808118
44	0xbda4e486	-0.080514
45	0x3d54c290	0.05194336
46	0x3df4661c	0.11933538
47	0xbca51548	-0.02015175
48	0xbd94df8a	-0.07269199
49	0x3ce87d80	0.028380156
50	0x3de828d0	0.11335909
51	0xbe5a1176	-0.21295723
52	0xbd27bbc4	-0.04095055
53	0xbe2ff2bb	-0.17182438
54	0x3dc8312c	0.09775004
55	0x3ddc84d4	0.107675225
56	0xbdb92414	-0.090400845
57	0x3dba881c	0.09107992
58	0xbd9f3edc	-0.07775661
59	0x3e2f7f40	0.17138386
60	0xbe144658	-0.14479959
61	0xbc48b860	-0.01225099
62	0xbd74a6e8	-0.059729487
63	0x3dc500dc	0.096193045
64	0xbe5e9349	-0.21735872
65	0x3dcd85d8	0.10035294
66	0x3d011cf0	0.031521738
67	0x3e0bbd70	0.13646483
68	0x3e53cfb8	0.20684707
69	0x3e7165a6	0.23573932
70	0xbdd62d2a	-0.10457833
71	0xbe533b3c	-0.20628065
72	0xbc4376c0	-0.011930168
73	0xbcec07d0	-0.028812319
74	0xbe6d5537	-0.23177038
75	0x3d20c878	0.039253682
76	0xbe137bca	-0.1440269
77	0xbe823d45	-0.2543737
78	0x3dec506c	0.11538777
79	0xbdd5c1bc	-0.104373425
80	0x3e0a9202	0.1353226
81	0xbe8213f0	-0.25405836
82	0xbd3b45a0	-0.045720696
83	0x3cb3e860	0.021961391
84	0x3e47aaca	0.19498745
85	0xbdde2348	-0.10846573
86	0x3df5ad98	0.11996001
87	0x3d06b380	0.03288603
88	0x3d5dfc78	0.05419585
89	0x3e6d22bc	0.23157781
90	0x3e75e5e2	0.24013475
91	0xbddd7322	-0.108129755
92	0xbe461de2	-0.19347337
93	0x3e00ddc6	0.125846
94	0x3e13cc4e	0.14433405
95	0xbde25b90	-0.110526204
96	0xbe8074d0	-0.2508912
97	0xbdb79d2c	-0.08965525
98	0xbd149d58	-0.036282867
99	0x3e027560	0.12740088
100	0x3e66e56c	0.22548455
101	0x3e5a30a2	0.21307614
102	0xbd5204c8	-0.05127409
103	0x3e80586d	0.25067464
104	0x3e85a96f	0.2610583
105	0x3ccddee0	0.02513069
106	0x3dc30228	0.09521896
107	0x3db89998	0.09013671
108	0xbe80a73a	-0.25127584
109	0x3cae56f0	0.02128169
110	0xbd8826c2	-0.066480175
111	0xbe85ea6c	-0.26155412
112	0x3e7be6be	0.2459974
113	0x3d8217b4	0.06352177
114	0xbd83ef74	-0.064421564
115	0x3e7c4212	0.24634579
116	0xbe15369b	-0.14571612
117	0xbe5bb5d4	-0.2145608
118	0x3e642904	0.22281271
119	0x3e0a9a66	0.13535461
120	0x3e378088	0.17920125
121	0xbd8b53b8	-0.068030775
122	0x3d776590	0.060399592
123	0xbe1a92ae	-0.15095016
124	0xbd901762	-0.0703571
125	0x3e358544	0.17726618
126	0x3e344b8c	0.17606944
127	0xbd821b6e	-0.06352888
128	0x3e3ca258	0.18421304
129	0xbe320e52	-0.17388275
130	0xbd817ee2	-0.06323029
131	0x3cb30cc0	0.021856666
132	0x3e80e43f	0.25174138
133	0x3d7a5890	0.061119616
134	0x3d8b0ed8	0.067899406
135	0xbe66d5aa	-0.22542444
136	0x3dd09398	0.10184401
137	0xbe3e9ec5	-0.18615253
138	0xbe7179e0	-0.23581648
139	0xbccf4740	-0.02530253
140	0x3e0388fe	0.12845227
141	0xbd203234	-0.039110377
142	0xbdc8ca64	-0.09804228
143	0x3dae7358	0.08518094
144	0x3e0efecc	0.13964385
145	0x3e8757d1	0.26434186
146	0x3df249cc	0.11830482
147	0x3deded04	0.11617473
148	0xbe56ed1f	-0.20988892
149	0x3e82fc41	0.2558308
150	0x3d3bab80	0.045817852
151	0x3e40d9c0	0.18833065
152	0x3c9a9cf0	0.018873662
153	0x3e4c2644	0.19936472
154	0x3d83f4a0	0.06443143
155	0x3e7701d6	0.24121794
156	0x3e630d8a	0.22173133
157	0xbd6b1900	-0.05739689
158	0x3e78189e	0.2422814
159	0xbe60a7a9	-0.21938957
160	0x3e036f2a	0.12835374
161	0xbda11f7a	-0.07867332
162	0x3e6aebfe	0.22941586
163	0x3d92a1b8	0.07159752
164	0x3e1b2868	0.15152133
165	0x3d0ea088	0.034821063
166	0x3e37d048	0.17950547
167	0x3e582ef4	0.21111661
168	0xbd0fd060	-0.03511083
169	0xbe83e0e8	-0.25757527
170	0x3e658c62	0.22416833
171	0xbcd656f0	-0.026164502
172	0xbe53dc2d	-0.20689459
173	0x3ddec818	0.108780086
174	0x3e83652f	0.25663134
175	0x3e35412c	0.17700642
176	0xbd71de7c	-0.05905007
177	0xbcc36590	-0.02385214
178	0x3dc06d34	0.09395829
179	0xbe172e44	-0.14763743
180	0x3e0714dc	0.13191551
181	0x3e12822c	0.14307469
182	0x3d5c3978	0.053765744
183	0x3c945f50	0.018111855
184	0xbd47f32c	-0.04881589
185	0xbe25d395	-0.16193993
186	0xbe01fdf5	-0.12694533
187	0x3d57c0d8	0.052674145
188	0xbc542fe0	-0.012950867
189	0xbe4303c2	-0.19044402
190	0x3e55061a	0.20803109
191	0x3b1ba780	0.002375096
192	0xbe3796fc	-0.1792869
193	0xbe0e5165	-0.13898237
194	0x3e48a3a2	0.19593671
195	0xbe0e6bb8	-0.13908279
196	0x3e3b4354	0.18287402
197	0xbcef0ec0	-0.029181838
198	0xbe4bbd40	-0.19896412
199	0xbe307a55	-0.17234166
200	0xbde91c4c	-0.1138235
201	0xbe09c77c	-0.13455003
202	0xbdd0c1d8	-0.10193223
203	0xbe3ec816	-0.18631014
204	0x3d8d34ec	0.0689486
205	0x3dc26efc	0.09493825
206	0xbe480ef4	-0.19536954
207	0x3d62b088	0.055344135
208	0xbdf6d278	-0.120518625
209	0xbcaa64d8	-0.02080004
210	0xbe86cc6c	-0.26327837
211	0xbe273c5c	-0.16331619
212	0x3e1f528a	0.1555883
213	0x3e7b2a16	0.24527773
214	0x3e2213a2	0.15827802
215	0x3e106024	0.14099175
216	0x3c8ae800	0.01695633
217	0x3e64603c	0.22302336
218	0xbe0dad5d	-0.13835664
219	0x3e023264	0.12714535
220	0x3e374ee2	0.17901185
221	0x3e82029d	0.2539262
222	0xbe4306c8	-0.19045556
223	0x3e10d428	0.14143431
224	0xbe58411c	-0.21118587
225	0xbe6f6b74	-0.23380834
226	0x3e659272	0.22419146
227	0xbdde6ee6	-0.10860996
228	0xbe4c08b8	-0.19925201
229	0xbe8215a5	-0.25407138
230	0xbe3ce036	-0.18444905
231	0x3d820480	0.063485146
232	0xbd31df4c	-0.043425843
233	0x3e581cc6	0.21104726
234	0xbe3e9d13	-0.18614607
235	0xbe0f45c8	-0.13991463
236	0x3d81fa60	0.06346583
237	0xbd927fb8	-0.07153267
238	0x3e1f1e5e	0.15538928
239	0x3df4f9d8	0.119617164
240	0x3e428dac	0.18999356
241	0x3e600f04	0.21880728
242	0xbcce7da8	-0.025206402
243	0x3e1db034	0.15399247
244	0x3d95186c	0.07280049
245	0xbdcbe430	-0.09955633
246	0xbe100937	-0.14066015
247	0xbe5854dd	-0.21126123
248	0xbe71e7e5	-0.23623617
249	0xbc29f6a0	-0.010373741
250	0xbe07a167	-0.13245164
251	0xbe505cea	-0.20347944
252	0x3e558a88	0.20853627
253	0x3e80c409	0.25149563
254	0xbe4ee950	-0.20206189
255	0xbc861110	-0.016365558

lstm.lstm.weight_hh_l0 f4 [56, 14]
0	0xbe4c34e6	-0.19942054
1	0xbd8ed55c	-0.06974289
2	0x3e3453ea	0.17610136
3	0xbe220e14	-0.15825683
4	0x3cfd64e0	0.03093189
5	0xbe3325a2	-0.17494825
6	0x3e285b76	0.1644114
7	0xbe61028a	-0.21973625
8	0xbe887ab1	-0.26656106
9	0xbdc0d1f6	-0.09415047
10	0x3d53e160	0.051728606
11	0x3e63a2a0	0.22230005
12	0xbcaa96d0	-0.020823866
13	0x3e2a76c0	0.16646862
14	0xbe4ea6b6	-0.20180783
15	0x3dd390b4	0.10330334
16	0xbd4565c0	-0.04819274
17	0x3d8fdb4c	0.070242494
18	0x3d84a2c4	0.064763576
19	0xbe302b57	-0.17204033
20	0x3dd4a89c	0.10383722
21	0x3cc2b5e0	0.023768365
22	0xbe8493fc	-0.25894153
23	0x3e16c12e	0.1472213
24	0xbdd4e88a	-0.10395916
25	0x3e239caa	0.15977731
26	0xbe86bf2f	-0.26317737
27	0xbd0cfba0	-0.034419656
28	0xbe1ffec8	-0.15624535
29	0xbe839e39	-0.25706652
30	0xbe1f79de	-0.15573832
31	0xbe7da36b	-0.2476937
32	0x3da33508	0.07969099
33	0x3e007480	0.12544441
34	0x3e5c05da	0.21486607
35	0x3dfee410	0.12445843
36	0x3e5ab7a2	0.21359113
37	0xbe42b0f2	-0.19012812
38	0x3d8ecb74	0.06972399
39	0xbe6cc1d0	-0.23120809
40	0x3e0676e2	0.13131288
41	0xbde76c08	-0.11299902
42	0x3e78890e	0.24271032
43	0xbca06ba0	-0.01958257
44	0x3e3653d6	0.17805418
45	0x3e5a874e	0.21340677
46	0x3e40cfc4	0.18829256
47	0xbdf4a4ba	-0.119454816
48	0xbd3ec3c8	-0.04657343
49	0xbc425e20	-0.011863261
50	0xbddc97ae	-0.10771118
51	0x3e0ba638	0.13637626
52	0x3e615e92	0.22008732
53	0xbe059748	-0.1304599
54	0xbe6ff19a	-0.23432007
55	0xbe4489e0	-0.1919322
56	0xbe22182a	-0.1582953
57	0x3c573cc0	0.0131370425
58	0xbdcfb8d2	-0.101426736
59	0x3dca2d98	0.098719776
60	0xbd81a48c	-0.06330213
61	0xbddd4cc0	-0.108056545
62	0xbe19f309	-0.15034117
63	0xbe6cf415	-0.23139985
64	0xbe87b485	-0.26504913
65	0x3aab7300	0.0013080537
66	0xbe239653	-0.15975313
67	0xbe4db2be	-0.20087716
68	0xbe81c0ef	-0.2534251
69	0x3dff7b50	0.12474692
70	0xbda2fbc2	-0.07958175
71	0xbe34014c	-0.1757862
72	0xbe7e1f3e	-0.24816605
73	0x3de7bc68	0.113152325
74	0xbe130955	-0.14359029
75	0xbe2a3011	-0.16619898
76	0x3dcde4b4	0.10053387
77	0x3e80f0e3	0.25183782
78	0xbd9c46f8	-0.07630724
79	0x3e09fbc4	0.13474947
80	0x3e32ee38	0.17473686
81	0x3dedc7c0	0.11610365
82	0xbd4af1b8	-0.049546927
83	0xbe7ba04a	-0.24572864
84	0x3e71ffea	0.2363278
85	0xbdbff10c	-0.09372148
86	0x3db2f0c8	0.08737332
87	0x3e0b528a	0.13605705
88	0xbe3dc5f6	-0.18532547
89	0x3e50d72c	0.20394582
90	0xbe6c6f76	-0.23089394
91	0xbe80354c	-0.25040662
92	0x3e5b58a4	0.21420532
93	0x3d385500	0.045002937
94	0x3db6bea0	0.089230776
95	0x3d0754a0	0.03303969
96	0x3deee6dc	0.11665127
97	0x3e7e9dfa	0.24864951
98	0xbe8264c7	-0.25467512
99	0x3cec1d10	0.028822452
100	0x3da87934	0.08226243
101	0xbe49a897	-0.19693218
102	0x3e37e7a4	0.17959458
103	0xbe5acd38	-0.21367347
104	0x3d9f8390	0.077887654
105	0xbda55f80	-0.08074856
106	0x3e3e5a78	0.18589199
107	0x3e768cf2	0.24077204
108	0x3e0c3d9e	0.1369538
109	0xbe82e7db	-0.25567517
110	0x3e43cec8	0.1912185
111	0xbc4557c0	-0.012044847
112	0xbe10d066	-0.14141998
113	0xbe1b93df	-0.15193127
114	0x3d5ef668	0.05443421
115	0x3e28c140	0.16479969
116	0x3e22de02	0.15905002
117	0x3dff5d30	0.12468946
118	0xbe85f4a1	-0.261632
119	0xbdb3a844	-0.087723285
120	0x3d32f8c8	0.043694288
121	0x3d733c08	0.059383422
122	0xbd5ab598	-0.053395838
123	0x3e1aa70a	0.15102783
124	0xbe80d394	-0.2516142
125	0xbc61b720	-0.013776571
126	0x3e83c22d	0.25734082
127	0x3ce6f420	0.02819258
128	0x3e12355c	0.14278167
129	0xbe6d1251	-0.23151518
130	0xbe0d1160	-0.1377616
131	0x3e1c025c	0.15235275
132	0xbd827fa4	-0.06372002
133	0xbe1f245e	-0.15541217
134	0x3e7fe9a2	0.24991468
135	0xbe5b1362	-0.21394113
136	0xbe4f1094	-0.20221168
137	0xbdf2a262	-0.11847378
138	0x3d7a18c8	0.06105879
139	0x3dfae74c	0.12251148
140	0x3bcb3e80	0.006202519
141	0x3de5f96c	0.11229214
142	0x3deda5c4	0.11603883
143	0x3db590e4	0.08865526
144	0xbdd774ec	-0.10520348
145	0xbe498053	-0.19677858
146	0x3d174740	0.036933184
147	0xbd677828	-0.056511074
148	0xbdd4dd9e	-0.103938326
149	0xbdac1280	-0.08401966
150	0xbe27facd	-0.16404267
151	0xbe137b50	-0.14402509
152	0xbb404d80	-0.0029343069
153	0x3dfc63c8	0.12323719
154	0xbd289540	-0.04115796
155	0xbdc65236	-0.09683649
156	0x3e1593f8	0.14607227
157	0x3e4aa448	0.19789231
158	0xbd498310	-0.049197257
159	0x3df3f71c	0.11912367
160	0x3ca43a00	0.020047188
161	0x3e5cd436	0.21565327
162	0xbc4f06a0	-0.012635857
163	0xbe538cd9	-0.20659198
164	0xbe44f5d0	-0.19234395
165	0xbde99fde	-0.11407445
166	0x3e1197d4	0.14218074
167	0x3c8270d0	0.015922934
168	0x3dc3cb5c	0.09560272
169	0xbd6ef5dc	-0.05833994
170	0x3dcbf450	0.09958708
171	0xbe6ed035	-0.23321612
172	0xbe374b20	-0.17899752
173	0x3e09ee90	0.1346991
174	0x3d63a638	0.05557844
175	0x3c299220	0.01034978
176	0xbe37050a	-0.17873016
177	0xbde691d0	-0.1125828
178	0x3e497e06	0.1967698
179	0x3e67a696	0.22622141
180	0x3d2d7568	0.042348295
181	0x3d66e938	0.05637476
182	0xbd675640	-0.05647874
183	0xbda01810	-0.078170896
184	0x3e14a370	0.14515471
185	0xbe7ce4d2	-0.24696663
186	0x3e354d7e	0.17705342
187	0x3d724018	0.059143156
188	0xbd9c7214	-0.07638946
189	0x3e45b6a8	0.19307959
190	0x3d8d569c	0.06901285
191	0x3e321c4e	0.1739361
192	0x3e5df69a	0.21676102
193	0xbaaeaa00	-0.001332581
194	0xbe25746a	-0.1615769
195	0x3e86ae65	0.26304927
196	0x3e687c36	0.22703633
197	0x3e311ed4	0.17296916
198	0x3e0db8e4	0.13840061
199	0x3deb8dec	0.11501679
200	0x3e7da7e6	0.2477108
201	0x3dbe0954	0.09279123
202	0xbe045705	-0.1292382
203	0xbbbc7c80	-0.0057521462
204	0x3e82e98b	0.25568804
205	0xbe562bc8	-0.20915139
206	0x3dee1be4	0.116264135
207	0x3e3ad790	0.18246293
208	0xbe164a3a	-0.14676753
209	0xbe79c280	-0.24390602
210	0x3e43bf06	0.19115838
211	0x3e38f8a2	0.18063596
212	0xbe2b9198	-0.16754758
213	0xbe80193c	-0.25019252
214	0x3e5621de	0.20911357
215	0xbe16bf47	-0.14721404
216	0x3e06b458	0.13154733
217	0xbe40f12f	-0.18842004
218	0xbe6bddff	-0.23033904
219	0xbe791ae7	-0.24326669
220	0x3d9a0560	0.075205564
221	0x3d0ed808	0.034873992
222	0xbda5689a	-0.08076592
223	0xbe2b50fe	-0.16730115
224	0xbe81d8e9	-0.25360802
225	0x3e82afb9	0.2552469
226	0x3e6d1424	0.23152214
227	0xbe476f44	-0.19476038
228	0xbe2e97ad	-0.17050047
229	0x3d972904	0.0738087
230	0x3cda1580	0.02662158
231	0xbd9567c2	-0.07295181
232	0x3d9eb9c4	0.07750276
233	0xbd851c76	-0.06499569
234	0xbc9edec0	-0.019393325
235	0xbdcc4ec6	-0.09975962
236	0x3c6fcb60	0.014635891
237	0xbc8609a0	-0.016362011
238	0xbe64c48a	-0.22340599
239	0xbe5a8c7c	-0.21342653
240	0xbe44772e	-0.19186088
241	0xbe108b7d	-0.1411571
242	0x3d029610	0.031881392
243	0xbdf31dca	-0.11870916
244	0xbde73f80	-0.112914085
245	0xbe37c2ec	-0.1794545
246	0xbe192a66	-0.1495758
247	0x3db20944	0.086931735
248	0x3e7e4612	0.24831417
249	0xbe2e1985	-0.17001922
250	0xbcd75018	-0.026283309
251	0x3e75e09a	0.2401146
252	0x3df0e970	0.11763275
253	0xbd0b6d60	-0.034039855
254	0xbe20ab56	-0.1569036
255	0x3d1d83b0	0.038455665

lstm.lstm.bias_ih_l0 f4 [56]
0	0xbe21895e	-0.15775058
1	0xbe319d36	-0.17345127
2	0x3e716c2a	0.23576418
3	0x3e5fb9b6	0.21848187
4	0xbd36cc24	-0.044628277
5	0xbe586aca	-0.21134487
6	0xbe886de3	-0.26646337
7	0x3d9580d8	0.072999656
8	0xbe074f36	-0.1321381
9	0x3e6b8300	0.22999191
10	0xbdaf6bc6	-0.08565478
11	0x3d7ce020	0.06173718
12	0xbd36e228	-0.044649273
13	0xbdb62678	-0.08894056
14	0xbd9cd5e4	-0.07657984
15	0x3d3ae918	0.04563245
16	0xbe85e072	-0.261478
17	0x3e8453ff	0.25845334
18	0xbd637860	-0.05553472
19	0xbda0c30a	-0.07849701
20	0x3dd3cdec	0.10342011
21	0x3db2352c	0.08701548
22	0xbe2a561a	-0.16634408
23	0x3e4e88a4	0.20169312
24	0xbe5b43be	-0.2141256
25	0x3e121708	0.14266598
26	0xbe44273a	-0.19155589
27	0x3e431ed0	0.19054723
28	0xbe06862a	-0.13137117
29	0x3e84d1f3	0.2594143
30	0x3d4cfe80	0.050047398
31	0xbdce67c8	-0.100783885
32	0x3e700e2a	0.23442903
33	0xbe30f919	-0.17282523
34	0xbe860916	-0.26178807
35	0xbd9d18ec	-0.07670769
36	0xbe0cb32c	-0.13740224
37	0x3dabff58	0.08398312
38	0x3da84704	0.0821667
39	0x3e84a57f	0.25907513
40	0x3e42a25e	0.1900725
41	0x3e150caa	0.14555612
42	0x3cd671a0	0.026177227
43	0xbe6581da	-0.22412816
44	0xbcb8d738	-0.022563562
45	0x3e08b784	0.13351256
46	0x3df660b0	0.120301604
47	0xbde1e71c	-0.11030409
48	0xbe13257a	-0.14369765
49	0x3e85cbef	0.2613215
50	0xbdd58646	-0.10426001
51	0x3d10a808	0.035316497
52	0x3e8066d7	0.2507846
53	0xbc0db2e0	-0.008648604
54	0xbd667c2c	-0.056270763
55	0xbe0c9c39	-0.13731469

lstm.lstm.bias_hh_l0 f4 [56]
0	0x3e54ac1e	0.20768782
1	0xb9c46000	-0.0003745556
2	0x3e81e243	0.25367936
3	0xbe7e9a2b	-0.24863498
4	0x3da9c4f0	0.08289516
5	0x3e5049d6	0.20340666
6	0xbe24c446	-0.16090497
7	0xbe5d4bd5	-0.21610959
8	0x3d74aaf8	0.05973336
9	0x3de41860	0.11137462
10	0xbd03e648	-0.032202035
11	0x3d733c48	0.05938366
12	0x3e7fd052	0.24981812
13	0x3dd5e37c	0.1044378
14	0xbd86cc8a	-0.065819815
15	0xbe4b5fa0	-0.19860697
16	0xbe2189cc	-0.15775222
17	0xbe2ae45c	-0.16688675
18	0xbdea267c	-0.114331216
19	0xbdd95416	-0.10611741
20	0x3dd411b0	0.10354936
21	0x3e1db11c	0.15399593
22	0xbe587011	-0.211365
23	0xbe43d2a2	-0.19123319
24	0xbe3b5e8b	-0.18297784
25	0x3e6ed01a	0.23321572
26	0x3e71ea46	0.23624524
27	0x3e531d34	0.20616609
28	0x3d0b4090	0.03399712
29	0x3dc75100	0.097322464
30	0x3e27d972	0.16391543
31	0xbe70dd38	-0.23521888
32	0x3db11804	0.08647159
33	0xbe628504	-0.22121054
34	0x3e83d8bb	0.2575129
35	0x3df6a9d0	0.12044108
36	0x3e78109a	0.24225083
37	0x3e341e2c	0.17589635
38	0xbe723982	-0.2365475
39	0xbad57000	-0.0016283989
40	0xbdfe1b66	-0.124075696
41	0x3bb58180	0.0055391192
42	0xbdae8112	-0.08520712
43	0x3de714d8	0.112832725
44	0xbe44c49f	-0.1921563
45	0x3da103b4	0.078620344
46	0x3dc327a8	0.09529048
47	0xbdf8966c	-0.12138066
48	0xbe69f86b	-0.2284867
49	0x3e154f5c	0.14581054
50	0x3e44ee74	0.19231588
51	0x3d7405a8	0.059575707
52	0xbe6f5eb1	-0.23375966
53	0xbe070c85	-0.1318837
54	0x3df4d6a4	0.11955002
55	0xbe1473ce	-0.14497301

gcn.gc1.weight f4 [14, 3]
0	0x00000000	0.0
1	0x00000000	0.0
2	0x00000000	0.0
3	0x00000000	0.0
4	0x00000000	0.0
5	0x00000000	0.0
6	0x00000000	0.0
7	0x00000000	0.0
8	0x00000000	0.0
9	0x00000000	0.0
10	0x00000000	0.0
11	0x00000000	0.0
12	0x00000000	0.0
13	0x00000000	0.0
14	0x00000000	0.0
15	0x00000000	0.0
16	0x00000000	0.0
17	0x00000000	0.0
18	0x00000000	0.0
19	0x00000000	0.0
20	0x00000000	0.0
21	0x00000000	0.0
22	0x00000000	0.0
23	0x00000000	0.0
24	0x00000000	0.0
25	0x00000000	0.0
26	0x00000000	0.0
27	0x00000000	0.0
28	0x00000000	0.0
29	0x00000000	0.0
30	0x00000000	0.0
31	0x00000000	0.0
32	0x00000000	0.0
33	0x00000000	0.0
34	0x00000000	0.0
35	0x00000000	0.0
36	0x00000000	0.0
37	0x00000000	0.0
38	0x00000000	0.0
39	0x00000000	0.0
40	0x00000000	0.0
41	0x00000000	0.0

gcn.gc1.bias f4 [3]
0	0xbc7dcd3f	-0.015490829
1	0x3d68529b	0.056719404
2	0x3de4b953	0.1116816

fc.weight f4 [14, 42]
0	0x3d815da9	0.063166924
1	0xbd9e8cf4	-0.077417284
2	0x3db0c386	0.08631043
3	0xbd4aa97e	-0.049478047
4	0x3c2c6088	0.010521062
5	0xbd99159b	-0.07474824
6	0x3e179b16	0.14805254
7	0xbd1a5622	-0.0376798
8	0x3abe13e3	0.0014501776
9	0xbd48878c	-0.048957393
10	0xbd4b9184	-0.04969932
11	0xbe140f33	-0.14458923
12	0xbe094db2	-0.13408545
13	0x3d644b7a	0.055736043
14	0x3c6ec9fd	0.014574525
15	0x3de60dab	0.11233076
16	0xbdd6da70	-0.104908824
17	0xbd2be13f	-0.04196286
18	0xbdf1106f	-0.117707126
19	0xbe195e24	-0.14977318
20	0xbe1fb199	-0.15595092
21	0x3dff7daf	0.12475144
22	0xbde7fb7d	-0.113272645
23	0x3dec8bf2	0.1155013
24	0xbdc6d62a	-0.09708817
25	0xbdeaba35	-0.114612974
26	0x3d915afc	0.07097432
27	0x3e0ea3bc	0.13929647
28	0xbc4a21d8	-0.012337171
29	0xbe009437	-0.1255654
30	0xbcf21ee9	-0.029555755
31	0x3dd38b75	0.10329334
32	0xbbdb2b4e	-0.006688512
33	0xbe0d4a50	-0.13797879
34	0xbcd999b9	-0.026562558
35	0xbe1dc6a8	-0.15407813
36	0x3b9d54fe	0.0048013916
37	0xbdebec2b	-0.11519655
38	0xbd09f449	-0.033680234
39	0xbde2ecae	-0.11080299
40	0x3dbbd713	0.091718815
41	0x3d0b7097	0.03404292
42	0xbd295edf	-0.04135024
43	0xbde046f9	-0.10951037
44	0xbe09a507	-0.13441859
45	0xbe19df29	-0.15026535
46	0xbd2dea36	-0.04245969
47	0x3dead379	0.114661165
48	0xbe057c67	-0.13035737
49	0xbe1bc767	-0.15212785
50	0xbdb19209	-0.08670432
51	0x3a8d45c6	0.001077824
52	0x3caa3549	0.020777361
53	0xbdb604ab	-0.08887609
54	0x3de2b9ea	0.110706165
55	0xbe06d2dd	-0.13166375
56	0xbe1bb8f7	-0.15207277
57	0xbc8615c5	-0.016367802
58	0xbddce2ad	-0.107854225
59	0x3dd46981	0.10371686
60	0x3dec656a	0.11542781
61	0x3daa0a33	0.083027266
62	0x3d2fd7c2	0.042930372
63	0xbcc0032d	-0.023439014
64	0x3d87326f	0.06601416
65	0x3d6d8fb8	0.05799839
66	0x3e0d0ff6	0.1377562
67	0xbe0b5720	-0.13607454
68	0xbda0b23c	-0.078464955
69	0x3ce43f4b	0.027862212
70	0x3bdead69	0.0067955744
71	0x3e00f1de	0.12592265
72	0xbd9336a7	-0.071881585
73	0xbce3e34f	-0.02781835
74	0x3db4fe23	0.08837535
75	0x3c87087c	0.016483538
76	0x3d8e765f	0.06956171
77	0xbd5a3e52	-0.05328209
78	0xbd1243dd	-0.03570925
79	0xbd0b756c	-0.03404753
80	0x3d1e7dc2	0.03869415
81	0xbdf186d0	-0.117932916
82	0x3e0e71f9	0.13910665
83	0x3b8d42ae	0.0043109274
84	0xbda08f35	-0.078398146
85	0x3e150d72	0.1455591
86	0xbdad0fa3	-0.08450248
87	0x3dc6de8f	0.097104184
88	0x3d4a46e8	0.049384028
89	0xbc78f468	-0.01519499
90	0xbdcfe1ff	-0.10150527
91	0xbcd12d70	-0.025534362
92	0xbd6db479	-0.05803344
93	0xbc94bbcb	-0.018155953
94	0x3de84443	0.11341145
95	0xbd25a5c7	-0.0404413
96	0x3cadc2f5	0.021211127
97	0x3d306334	0.043063357
98	0x3d3c93f1	0.046039525
99	0xbd9318d0	-0.07182467
100	0xbdc0c927	-0.09413367
101	0xbe0ed041	-0.1394663
102	0xbdb065db	-0.086131774
103	0x3ddd8fef	0.10818469
104	0xbe0591aa	-0.13043848
105	0xbdea8465	-0.114510335
106	0xbda485d1	-0.08033336
107	0x3cf6c77b	0.030124417
108	0xbab379e1	-0.0013692939
109	0x3d8cce05	0.068752326
110	0x3e11c70a	0.14236084
111	0xbda982ee	-0.08276926
112	0xbd84adf1	-0.06478489
113	0x3e118a40	0.14212894
114	0x3e1dac5c	0.15397781
115	0xbd8c0bc0	-0.06838179
116	0xbdf6c263	-0.12048795
117	0xbe158d57	-0.14604698
118	0x3dc214e1	0.094766386
119	0xbdcfc98c	-0.10145864
120	0x3c3975e5	0.011319612
121	0xbdbb2b1f	-0.09139084
122	0xbe06728f	-0.13129638
123	0x3d07db15	0.033167917
124	0x3df704ef	0.12061488
125	0xbc573a22	-0.013136419
126	0xbb67bcd6	-0.0035360358
127	0x3d1675e8	0.036733538
128	0xbda4025c	-0.080082625
129	0xbda662a4	-0.08124283
130	0xbccbd0f4	-0.02487991
131	0xbc7190bb	-0.014743979
132	0x3dc41a8d	0.09575377
133	0x3d594114	0.05304058
134	0x3e007448	0.12544358
135	0xbdf020e7	-0.117250256
136	0xbd9a45ec	-0.07532868
137	0x3d9d91c2	0.07693817
138	0x3d299374	0.041400388
139	0xbd029886	-0.03188374
140	0xbdff2c64	-0.12459639
141	0xbdce2e67	-0.10067444
142	0x3d92ff84	0.07177642
143	0x3d15533a	0.036456324
144	0xbda315ed	-0.079631664
145	0xbe11e6f2	-0.14248255
146	0x3dccc272	0.09998025
147	0xbdcc1ebf	-0.09966802
148	0x3d6609dc	0.056161746
149	0x3dd0475e	0.10169862
150	0xbd72513e	-0.05915951
151	0xbe09b991	-0.13449694
152	0xbd0be798	-0.034156412
153	0x3d1fcc2c	0.039013073
154	0xbe161eca	-0.14660183
155	0x3d98ef52	0.07467522
156	0x3d09ee44	0.033674493
157	0x3de9afb4	0.11410466
158	0x3dd09596	0.10184781
159	0x3ddc16b1	0.107465155
160	0xbd829373	-0.0637578
161	0x3e09e5c5	0.13466556
162	0xbe0765bd	-0.13222404
163	0x3da1a670	0.078930736
164	0xbd3e16e4	-0.04640855
165	0x3e0d7276	0.13813195
166	0x3b06784a	0.0020518475
167	0x3bdbf96f	0.0067130844
168	0x3d94fb6f	0.0727452
169	0xbe20684c	-0.15664786
170	0x3d4196e4	0.04726304
171	0x3d15c63c	0.036566004
172	0xbe03641a	-0.12831154
173	0xbe00cf4d	-0.12579079
174	0x3e1b8d58	0.15190637
175	0x3dba8202	0.09106828
176	0xbe1693ee	-0.14704868
177	0x3d4553fc	0.048175797
178	0x3d8c1b2a	0.06841119
179	0xbdcb7435	-0.09934274
180	0x3ca44df2	0.020056698
181	0xbd488267	-0.048952486
182	0x3d8974e7	0.067117505
183	0xbae86334	-0.001772976
184	0x3dc2c39a	0.09509964
185	0x3e0ae1e9	0.1356274
186	0x3decca51	0.11562026
187	0xbcd71325	-0.026254246
188	0x3d97e63f	0.07416963
189	0xbdf4927e	-0.11942004
190	0xbc78d8fa	-0.01518845
191	0xbe0608d8	-0.13089311
192	0x3c550978	0.013002746
193	0x3d971ed6	0.07378928
194	0xbdb0bfee	-0.08630358
195	0xbccdacce	-0.025106814
196	0xbd7a378b	-0.061088126
197	0x3d81eb29	0.06343681
198	0xbd49e2d6	-0.049288593
199	0xbe18b471	-0.14912583
200	0x3c83c22b	0.016083797
201	0xbd0f90c4	-0.03505017
202	0xbe087ded	-0.13329287
203	0xbd93f8e6	-0.07225208
204	0xbdbc8e75	-0.09206859
205	0x3ce5d413	0.028055226
206	0x3de9c655	0.11414782
207	0xbdf2c02b	-0.118530594
208	0xbc4a736a	-0.012356618
209	0xbd960851	-0.07325805
210	0x3c4b7403	0.012417796
211	0x3d82d49c	0.06388208
212	0xbe1f2ef0	-0.15545249
213	0xbdf81d39	-0.12114949
214	0x3dca562e	0.09879719
215	0xbdf5de0a	-0.12005241
216	0x3d9a34fe	0.07529639
217	0xbcb12ff2	-0.021629307
218	0x3d309520	0.043110967
219	0x3e14cfba	0.14532366
220	0x3d1abe19	0.037778948
221	0x3d01069c	0.031500444
222	0x3d0639c4	0.032769933
223	0xbd5dd253	-0.05415566
224	0xbdd84064	-0.105591565
225	0x3d965580	0.073405266
226	0xbce300a2	-0.027710263
227	0x3d2ffca4	0.042965546
228	0xbdc86994	-0.097857624
229	0xbde45e4e	-0.111508
230	0xbde8e5a2	-0.11371924
231	0x3d6dbb5c	0.058040008
232	0xbd985624	-0.07438305
233	0xbe073577	-0.13203989
234	0x3d0026e5	0.031287093
235	0x3d48dbf1	0.049037877
236	0xbdabc7d2	-0.08387722
237	0xbd760526	-0.060063504
238	0xbda5daa5	-0.08098344
239	0x3dacdcab	0.084405266
240	0xbdbebda0	-0.09313512
241	0xbd0e8443	-0.034794103
242	0xbde46fc7	-0.11154132
243	0x3e101b40	0.14072895
244	0xbdabbdc6	-0.08385806
245	0xbd732a9c	-0.059366807
246	0x3e046968	0.12930834
247	0x3d1e0a11	0.03858382
248	0x3d4f0c5c	0.050548896
249	0xbcebbedb	-0.02877753
250	0x3c96868e	0.018374708
251	0x3d099dec	0.03359787
252	0xbcc08b79	-0.023504006
253	0xbe0efe82	-0.13964275
254	0x3df72789	0.120680876
255	0xbcc5bf89	-0.024139183

fc.bias f4 [14]
0	0x3d993eae	0.07482658
1	0x3c9e708d	0.019340778
2	0x3cebc0ee	0.02877852
3	0xbd2ffb12	-0.04296405
4	0x3d3b4393	0.04571874
5	0x3da738e0	0.08165145
6	0x3c23cbc9	0.009997317
7	0x3d1963b2	0.037448592
8	0x3c64c4bb	0.01396292
9	0xbbb579ee	-0.005538217
10	0x3c986d90	0.018606931
11	0x3db77baf	0.08959138
12	0x3d03d8c5	0.03218915
13	0x3cddb219	0.027062463
