model checkpoints/vanilla_lstm.pth (torch, 55199 bytes, 4 tensors)

lstm.weight_ih_l0 f4 [56, 224]
-0.29281795 -0.10557555 0.14984861 -0.16667414 -0.30481374 -0.16438462 0.093398996 -0.27263954
-0.20043866 0.037235405 -0.118063204 0.12971032 -0.2082349 0.15310736 -0.15967835 0.068894826
0.031883575 0.08882558 -0.22493643 -0.30263084 0.0782186 -0.030074663 -0.10989311 -0.12436361
-0.024501042 0.20745662 0.0043560946 0.16906834 -0.012324156 -0.08817122 -0.31424043 -0.15006386
-0.29839844 -0.16337022 0.028772902 -0.2501813 0.014131155 -0.10585084 -0.3235375 -0.2538531
-0.26267686 -0.08448851 -0.13796495 0.16364406 -0.19247612 0.1400213 -0.1400302 0.23401706
0.029442143 0.13922675 0.22170323 -0.1581001 0.04135404 -0.08425615 0.12619367 -0.22092804
0.15909931 -0.18265238 0.157234 -0.251503 0.038130164 -0.10689165 -0.1283657 -0.25257373
-0.066098675 -0.16043484 0.047883943 -0.19373007 -0.18893743 0.100083016 -0.21768263 0.07008857
0.043454256 -0.038913824 0.1853333 -0.22154589 0.0073916437 0.015712425 -0.117060795 -0.015045679
0.029812442 0.11505745 0.18606444 0.031376246 0.14279385 -0.28445002 0.15563007 -0.1843493
-0.2427991 -0.03518987 -0.31182894 -0.24777302 -0.24038468 -0.23419273 0.03881945 -0.24492307
-0.059253056 0.07826701 -0.05117376 -0.05337019 0.120479666 -0.14101818 -0.10685708 -0.24970667
0.03970298 -0.3138283 -0.16734909 -0.2557412 -0.03896675 -0.19014679 -0.13788135 -0.12380392
-0.16597234 0.04480223 -0.2701331 -0.07938587 -0.32194865 0.14172733 0.019966878 0.2034186
-0.29384437 0.10455065 -0.026772877 -0.061603572 0.19896482 -0.17377092 -0.2187302 0.015141814
-0.005971798 -0.12468412 -0.2804523 0.19207583 0.09941107 -0.17539869 -0.30646864 0.15678573
0.098245636 -0.12708344 0.13260257 0.011776634 -0.20751153 -0.1211651 -0.018285088 -0.08074281
-0.26239994 0.055515338 -0.24184597 -0.09548993 -0.110338375 0.120077826 -0.28424788 0.034765303
-0.3291684 -0.1663214 -0.10876085 0.06522781 -0.31770766 -0.23977652 -0.13842437 -0.18664065
0.15488887 -0.19379735 -0.2855303 0.16531572 0.0150071215 -0.31194416 -0.19613883 -0.24479808
-0.19376725 -0.02493039 -0.22463459 -0.22674529 0.042946547 -0.21318032 -0.17814133 0.09737053
-0.1463611 -0.00060356857 -0.112069465 -0.14797486 -0.2130465 0.027657531 0.18006232 -0.19030473
-0.0051173978 0.08949245 0.08880694 -0.20794834 -0.30265346 -0.2959794 0.21524572 -0.12251131
-0.25368473 0.060532995 -0.18659617 0.21496736 -0.09343903 -0.22828664 0.19305433 0.060127873
0.19422685 -0.1440092 0.08649677 -0.025512537 -0.02976621 -0.006846564 0.02439615 -0.135043
0.07344058 -0.2708869 -0.034618832 -0.14487489 0.20428894 -0.2921884 -0.11393984 -0.25879988
0.08788024 0.05017657 -0.08488307 0.17494331 0.205619 0.1660959 0.18622036 -0.09899473
0.037177145 -0.13947225 0.103541255 -0.14169244 0.10944033 -0.089053884 0.16726929 -0.094573766
0.11687815 0.10459882 -0.018682271 0.10029644 0.045645714 0.25034 0.117318034 -0.07783811
0.20370138 -0.0954894 0.20381305 0.0131188035 -0.20720461 0.06505534 0.089249164 -0.16809638
0.12240362 -0.20234768 -0.21262024 0.2334964 0.2572284 -0.15107529 -0.22090691 -0.22642143
00000000: 3cec 95be fe37 d8bd ea71 193e a0ac 2abe
00000010: 8c10 9cbe 7154 28be f947 bf3d 6997 8bbe
00000020: cb3f 4dbe 2784 183d 1fcb f1bd c8d2 043e
00000030: 883b 55be 2dc8 1c3e b982 23be bb18 8d3d
00000040: 5a98 023d 30ea b53d bc55 66be 6ef2 9abe
00000050: 1331 a03d 245f f6bc a40f e1bd 59b2 febd
00000060: 69b6 c8bc 826f 543e 92bd 8e3b 4020 2d3e
00000070: 42eb 49bc 1d93 b4bd 1fe4 a0be 57aa 19be
00000080: aec7 98be 864a 27be 26b5 eb3c c317 80be
00000090: 5c86 673c 53c8 d8bd b5a6 a5be 09f9 81be
000000a0: 957d 86be 5008 adbd af46 0dbe 4f92 273e
000000b0: 7618 45be be61 0f3e 1464 0fbe 2ba2 6f3e
000000c0: a630 f13c 7591 0e3e 2c06 633e fee4 21be
000000d0: db62 293d 7d8e acbd ea38 013e f63a 62be
000000e0: eeea 223e 3a09 3bbe f301 213e 00c5 80be
000000f0: 602e 1c3d 02ea dabd 4c72 03be 5851 81be
00000100: be5e 87bd 0849 24be f421 443d 2d61 46be
00000110: d078 41be 53f8 cc3d 32e8 5ebe 998a 8f3d
00000120: 17fd 313d 1a64 1fbd 03c8 3d3e eddc 62be
00000130: 9a35 f23b 58b7 803c 92bd efbd 2782 76bc
00000140: 3939 f43c 3ea3 eb3d ad87 3e3e 6184 003d
00000150: 8d38 123e 6fa3 91be 7d5d 1f3e 10c6 3cbe
00000160: 54a0 78be 4123 10bd 0ba8 9fbe 36b8 7dbe
00000170: 6727 76be 38d0 6fbe 2501 1f3d 1dcd 7abe
00000180: 55b3 72bd 744a a03d 949b 51bd b39a 5abd
00000190: 0bbe f63d 1267 10be e2d7 dabd 1bb3 7fbe
000001a0: 989f 223d 1aae a0be 8f5d 2bbe 83f0 82be
000001b0: 999b 1fbd d7b5 42be c530 0dbe e98c fdbd
000001c0: a7f4 29be 8b82 373d e34e 8abe 0f95 a2bd
000001d0: 74d6 a4be f820 113e 9491 a33c f74c 503e
000001e0: c572 96be a71e d63d cb52 dbbc 0754 7cbd
000001f0: 6fbd 4b3e 01f1 31be cffa 5fbe 5f15 783c
00000200: 13af c3bb 635a ffbd 7297 8fbe 87af 443e
00000210: 0898 cb3d b79b 33be 75e9 9cbe 708c 203e
00000220: 0235 c93d 2922 02be f8c8 073e c8f2 403c
00000230: e77d 54be 6825 f8bd 9cca 95bc 7d5c a5bd
00000240: 4959 86be 0d64 633d 78a6 77be 3990 c3bd
00000250: 16f9 e1bd 5deb f53d f088 91be 1066 0e3d
00000260: c388 a8be 2850 2abe 02be debd 2896 853d
00000270: 94aa a2be fa87 75be 1ebf 0dbe ba1e 3fbe
00000280: 309b 1e3e d072 46be 0731 92be 8648 293e
00000290: 6ee0 753c 25b7 9fbe 9ed8 48be 59ac 7abe
000002a0: ec6a 46be d13a ccbc 9c06 66be eb2f 68be
000002b0: b8e8 2f3d f14b 5abe ae6a 36be 336a c73d
000002c0: afdf 15be cd38 1eba ad84 e5bd b986 17be
000002d0: dd28 5abe 0c92 e23c 4262 383e 3edf 42be
000002e0: d8af a7bb d147 b73d 6ae0 b53d 69f0 54be
000002f0: 65f5 9abe 9d8a 97be 6069 5c3e 36e7 fabd
00000300: f7e2 81be 72f1 773d 1113 3fbe 6720 5c3e
00000310: f65c bfbd f9c3 69be 09b0 453e a548 763d
00000320: 67e3 463e 2677 13be 3825 b13d abff d0bc
00000330: 44d8 f3bc 2459 e0bb 6fda c73c b648 0abe
00000340: 0468 963d b0b1 8abe 7acc 0dbd 155a 14be
00000350: 1f31 513e b899 95be 4a59 e9bd 6b81 84be
00000360: 8efa b33d f285 4d3d 2dd7 adbd 5724 333e
00000370: ca8d 523e 0b15 2a3e 8db0 3e3e c0bd cabd
00000380: 1047 183d d0d1 0ebe 700d d43d d317 11be
00000390: 4022 e03d e261 b6bd a448 2b3e e4af c1bd
000003a0: d05d ef3d e837 d63d 900b 99bc 3868 cd3d
000003b0: 00f7 3a3d 912c 803e 7044 f03d 9669 9fbd
000003c0: 1897 503e f28f c3bd 5eb4 503e 40f0 563c
000003d0: 722d 54be bc3b 853d 44c8 b63d 7521 2cbe
000003e0: c0ae fa3d 3b34 4fbe 1fb9 59be ae19 6f3e
000003f0: 71b3 833e 7bb3 1abe 6c35 62be 05db 67be

lstm.weight_hh_l0 f4 [56, 14]
-0.018450927 -0.1936552 -0.26213154 0.19136798 -0.25489894 0.12769517 0.07112357 -0.074324615
0.25394395 -0.12433995 -0.122798145 -0.28474227 -0.05797912 0.2874387 0.21914774 -0.0253219
0.015301198 0.07587904 -0.24932736 0.0481593 0.1217311 -0.1700298 0.23591527 -0.046575144
0.10594764 0.18114689 0.11928868 -0.05764319 0.058040977 -0.26459625 0.060204357 -0.23048514
-0.24807367 -0.18358961 -0.15578952 -0.14768095 0.12839428 -0.02010195 0.2318052 -0.044564202
0.10774487 -0.0831438 -0.10638265 0.15268674 0.089809775 -0.17063195 0.030794144 0.17239156
-0.06226407 0.2366018 -0.23394951 -0.039515376 -0.104677245 0.26499596 0.10599524 0.085271746
-0.09341027 -0.021667302 0.12789464 0.21189755 0.23692927 -0.21100841 0.14703166 0.08473322
-0.17313269 0.14726606 -0.13826048 0.08428034 -0.19588682 0.017297149 0.0833309 -0.21962251
0.03204383 -0.16577677 0.030440241 0.07775121 -0.2326464 0.045332465 -0.18445247 0.16593403
0.13606498 -0.10352266 -0.06934066 0.16971931 0.08943647 0.16649088 0.08568984 -0.11241996
-0.1399828 -0.17923337 0.0049262536 -0.18005615 0.15788221 -0.22168908 0.23618028 -0.08887777
-0.28487244 -0.08807674 -0.04505995 -0.11822423 0.22517684 0.22854349 -0.08155455 -0.16414899
0.005080849 -0.10603471 -0.121173516 0.092564344 -0.03264317 -0.2545766 -0.2669338 0.23101693
0.15508547 -0.029108405 0.2631919 0.13710213 0.1459243 0.11985177 -0.17616573 -0.12403272
0.17376435 0.0013117194 -0.115927845 -0.1598547 -0.09193477 -0.1153107 -0.03908199 -0.105263755
0.25139663 0.07575303 0.104118556 -0.19164789 0.096688956 -0.16800229 -0.2665549 0.19563079
-0.1804471 0.079672635 0.116178304 -0.034109697 -0.02855283 0.031144232 -0.1205775 -0.09522566
-0.065770626 -0.07031433 0.16003811 -0.026684046 -0.10943003 -0.056535423 -0.013138562 -0.098802805
-0.11708571 -0.23739034 0.05448027 0.20840394 -0.22342373 0.10321599 -0.105599314 0.0074362596
0.14549264 0.017062044 0.107064515 -0.10989319 -0.017240584 0.03247942 -0.0674324 -0.0062649865
0.25643912 0.09457967 -0.2236869 -0.0632028 0.120407104 0.12776788 0.11828387 -0.093987994
0.048489124 -0.2144473 -0.08742212 -0.23013091 0.22531608 0.2327802 0.028127814 0.14077789
-0.0013144419 -0.13735786 0.10374266 0.042160522 -0.1403838 -0.111004114 -0.22679582 0.15557098
-0.19303761 -0.14977427 0.07874504 0.16941828 0.047027558 0.02218023 0.26545164 -0.022557661
0.15320772 -0.012889117 -0.25731093 -0.07855484 0.048700005 -0.02613628 0.0859054 0.22234595
-0.23576215 -0.09022331 0.13079467 0.16197276 0.035053372 0.21090645 -0.2340433 -0.25473765
0.21871191 0.009800404 0.19198942 0.22850549 0.18826005 -0.062784314 -0.10136989 0.23631522
0.04973066 0.035989076 -0.029009566 0.25556037 0.10763484 0.04041055 -0.25920588 0.2126697
-0.015369773 0.11966622 -0.010473639 -0.14301856 0.054466665 0.16705793 0.25947282 0.21893379
0.06147468 0.13394982 0.21461156 -0.21576633 0.04336837 0.25427464 -0.16182658 0.0034904778
-0.16250765 -0.11745988 -0.23364672 0.037902087 -0.1720986 0.0014395714 0.07038504 0.14900321
00000000: 6626 97bc 8c4d 46be 1b36 86be f8f5 433e
00000010: 1d82 82be 86c2 023e 3ca9 913d 8137 98bd
00000020: f104 823e f2a5 febd 987d fbbd bdc9 91be
00000030: 847b 6dbd 2a2b 933e 4468 603e e06f cfbc
00000040: e0b1 7a3c 7866 9b3d ac4f 7fbe b042 453d
00000050: 284e f93d 4b1c 2ebe c693 713e 94c5 3ebd
00000060: 14fb d83d 927e 393e a04d f43d 441b 6cbd
00000070: 60bc 6d3d 2979 87be d898 763d 4c04 6cbe
00000080: 0607 7ebe eafe 3bbe 4a87 1fbe ad39 17be
00000090: ca79 033e d8ac a4bc 585e 6d3e f488 36bd
000000a0: 58a9 dc3d 4c47 aabd 26df d9bd ea59 1c3e
000000b0: 30ee b73d 24ba 2ebe 0044 fc3c 6a87 303e
000000c0: 9c08 7fbd be47 723e 7690 6fbe e0da 21bd
000000d0: 0661 d6bd 8dad 873e 0814 d93d f4a2 ae3d
000000e0: e24d bfbd a07f b1bc d0f6 023e acfb 583e
000000f0: 969d 723e 9712 58be 788f 163e 9c88 ad3d
00000100: b249 31be eacc 163e 2894 0dbe 2c9b ac3d
00000110: 8e96 48be c0b2 8d3c 64a9 aa3d b9e4 60be
00000120: 6440 033d 63c1 29be d05d f93c 073c 9f3d
00000130: dc3a 6ebe 89ae 393d 1ce1 3cbe 9cea 293e
00000140: 9e54 0b3e b003 d4bd 7a02 8ebd e6ca 2d3e
00000150: 782a b73d 967c 2a3e 287e af3d 703c e6bd
00000160: a757 0fbe f488 37be 696c a13b a460 38be
00000170: e0ab 213e 7602 63be 3ed9 713e 8c05 b6bd
00000180: cdda 91be 9461 b4bd c890 38bd 8c1f f2bd
00000190: c294 663e 4e07 6a3e 1206 a7bd ac16 28be
000001a0: 407d a63b ba28 d9bd d229 f8bd 6092 bd3d
000001b0: d8b4 05bd dd57 82be 8cab 88be b48f 6c3e
000001c0: bace 1e3e c074 eebc 17c1 863e 8064 0c3e
000001d0: 2e6d 153e d874 f53d ca64 34be de04 febd
000001e0: 48ef 313e 00ee ab3a 946b edbd f3b0 23be
000001f0: 4c48 bcbd 0428 ecbd 7014 20bd 8694 d7bd
00000200: 0fb7 803e 6824 9b3d 1c3c d53d 583f 44be
00000210: dc04 c63d cb08 2cbe e279 88be 7053 483e
00000220: 20c7 38be 682b a33d e4ee ed3d 9cb6 0bbd
00000230: a0e7 e9bc 3022 ff3c 56f1 f6bd ac05 c3bd
00000240: c0b2 86bd f600 90bd 08e1 233e 8098 dabc
00000250: da1c e0bd b091 67bd 2043 57bc 2059 cabd
00000260: a2ca efbd 7416 73be b426 5f3d d867 553e
00000270: 31c9 64be e862 d33d 7444 d8bd deab f33b
00000280: 06fc 143e b3c5 8b3c a444 db3d ae0f e1bd
00000290: 203c 8dbc 2409 053d 001a 8abd 844a cdbb
000002a0: fd4b 833e fcb2 c13d 2e0e 65be 7870 81bd
000002b0: 0098 f63d 95d5 023e d03e f23d c77c c0bd
000002c0: 889c 463d 1398 5bbe 5e0a b3bd 70a7 6bbe
000002d0: 42b9 663e ef5d 6e3e 4d6c e63c 1428 103e
000002e0: 5a49 acba 8aa7 0cbe 0877 d43d 83b0 2c3d
000002f0: c5c0 0fbe 2056 e3bd 2a3d 68be 004e 1f3e
00000300: a7ab 45be 6d5e 19be 1445 a13d fc7b 2d3e
00000310: f89f 403d 50b3 b53c 47e9 873e d8ca b8bc
00000320: 7ce2 1c3e e02c 53bc 42be 83be 5ce1 a0bd
00000330: a879 473d c01b d6bc 2cef af3d a8ae 633e
00000340: a26b 71be 00c7 b8bd 0aef 053e 30dc 253e
00000350: 2094 0f3d dcf7 573e 0ca9 6fbe f96c 82be
00000360: 04f6 5f3e e091 203c e098 443e 58fd 693e
00000370: 3ec7 403e 1095 80bd 049b cfbd 9efc 713e
00000380: 60b2 4b3d 4869 133d 78a5 edbc cfd8 823e
00000390: a86f dc3d 8885 253d a2b6 84be 16c6 593e
000003a0: 80d1 7bbc 9013 f53d a099 2bbc 7573 12be
000003b0: 7018 5f3d 3c11 2b3e 9fd9 843e 2e30 603e
000003c0: e0cc 7b3d 242a 093e 22c3 5b3e d9f1 5cbe
000003d0: 08a3 313d 4930 823e deb5 25be 80c0 643b
000003e0: 6868 26be ce8e f0bd 1641 6fbe 383f 1b3d
000003f0: 9e3a 30be 00b0 bc3a 0826 903d 4c94 183e

lstm.bias_ih_l0 f4 [56]
-0.1375225 -0.24467707 -0.12252873 -0.19050528 0.016725034 -0.30777648 -0.027830902 0.037258256
0.069186 -0.21209092 -0.1847721 0.11446152 -0.13051192 0.09349999 0.22183034 0.15413985
-0.16765559 0.14253974 0.090960056 -0.15304857 0.08845726 -0.24587038 0.086342156 -0.23573345
0.08385691 0.24067941 0.1691311 0.07552248 0.001836896 -0.08362004 0.15852621 -0.12569925
0.26641968 0.08953425 -0.08032741 -0.25601608 0.23376366 -0.09139681 -0.13183646 -0.23352024
-0.26120588 -0.054669976 -0.1586737 -0.029300958 0.07728779 -0.24764404 -0.20522724 -0.10210857
0.16963142 0.22381088 -0.096994296 0.14711979 0.09151691 0.16417113 -0.1281759 0.11949295
00000000: b3d2 0cbe a08c 7abe 58f0 fabd d113 43be
00000010: f002 893c e194 9dbe a2fd e3bc 1d9c 183d
00000020: 64b1 8d3d 5d2e 59be e634 3dbe cd6a ea3d
00000030: eba4 05be ec7c bf3d 7e27 633e d6d6 1d3e
00000040: e8ad 2bbe f0f5 113e 4449 ba3d c4b8 1cbe
00000050: 1429 b53d 72c5 7bbe 28d4 b03d 1c64 71be
00000060: 2cbd ab3d aa74 763e b430 2d3e 88ab 9a3d
00000070: 00c4 f03a fc40 abbd b254 223e 4eb7 00be
00000080: 2968 883e bc5d b73d b282 a4bd 8a14 83be
00000090: be5f 6f3e 402e bbbd 2300 07be ee1f 6fbe
000000a0: c7bc 85be a0ed 5fbd 5c7b 22be 9008 f0bc
000000b0: 1049 9e3d 6696 7dbe 1727 52be 4c1e d1bd
000000c0: dcb3 2d3e ae2e 653e f2a4 c6bd 92a6 163e
000000d0: 386d bb3d 7a1c 283e 8b40 03be b8b8 f43d

lstm.bias_hh_l0 f4 [56]
0.04037587 0.11496565 -0.12918504 0.2306939 -0.25680172 -0.25144368 -0.27079442 0.19264244
0.26160672 0.10589963 -0.03231795 -0.0872995 -0.13455512 -0.15702464 -0.020616174 -0.11799578
0.14373904 0.13025558 0.03815341 -0.14523579 0.21382403 0.10734956 0.16333583 -0.13151728
0.010246575 -0.26058376 0.11231485 0.023753375 0.21430266 -0.10120097 -0.102888994 -0.17122203
-0.14135668 0.1565004 -0.12592301 0.24145135 -0.17158855 0.19123194 -0.112920135 0.26236716
0.12012482 0.16343515 0.2454131 0.047168583 -0.09840284 0.01718527 -0.30918977 -0.25597608
0.019583642 0.19760087 -0.07584973 -0.12902665 -0.101476595 0.14991459 -0.10295385 -0.013673753
00000000: 2b61 253d 1c73 eb3d 1549 04be 063b 6c3e
00000010: 847b 83be 3abd 80be 91a5 8abe 0f44 453e
00000020: 51f1 853e e8e1 d83d d45f 04bd 15ca b2bd
00000030: d1c8 09be 11cb 20be 40e3 a8bc c6a7 f1bd
00000040: 5430 133e b861 053e c046 1c3d b1b8 14be
00000050: b0f4 5a3e 16da db3d 8241 273e 77ac 06be
00000060: 40e1 273c 3c6b 85be 5405 e63d 7096 c23c
00000070: 2872 5b3e 7442 cfbd 77b7 d2bd d454 2fbe
00000080: cebf 10be a441 203e f6f1 00be 063f 773e
00000090: e9b4 2fbe 4ed2 433e ac42 e7bd fd54 863e
000000a0: 0004 f63d 8b5b 273e 924d 7b3e d833 413d
000000b0: 6e87 c9bd 20c8 8c3c 1f4e 9ebe 4c0f 83be
000000c0: e06d a03c e257 4a3e 1a57 9bbd 901f 04be
000000d0: f6d2 cfbd 3683 193e 78d9 d2bd e007 60bc
