model checkpoints/vanilla_lstm.pth (torch, 55199 bytes, 4 tensors)

lstm.weight_ih_l0 f4 [56, 224]
-0.07000829 0.19740322 0.19938326 0.16961625 0.13517205 0.1150389 -0.15554963 -0.022686856
-0.026329506 -0.09183164 0.12563364 -0.08858103 0.084548354 0.19967617 -0.098585814 0.18426283
-0.16279446 0.04615577 0.23182638 0.10314319 0.0024008336 -0.09319346 -0.0958959 0.12729849
-0.18207066 -0.07737613 -0.13978739 0.07997653 -0.02610594 0.24159685 0.22566539 0.27879706
0.097348765 -0.11810711 -0.03517231 -0.12985907 0.30889124 0.15035535 0.069445446 0.10251835
0.23409592 0.1905432 -0.12450414 0.2599379 0.327857 -0.12980393 0.05559873 -0.17878342
-0.01881496 -0.2000639 -0.011425226 0.13911593 -0.009993397 0.09445808 0.025402086 -0.083713084
-0.034043822 -0.039982457 -0.13870257 0.009392053 -0.111759104 0.03781497 -0.13686816 0.2603438
-3.0970405e-05 -0.10158301 -0.032421336 -0.13987502 -0.12454554 -0.030941263 -0.075707704 0.29044777
0.16355893 -0.13754715 0.073160686 0.14358905 -0.18178391 -0.040512357 -0.02885412 0.1887129
0.11759112 0.17207891 0.2855865 0.31122547 0.10205598 0.20102143 0.06604188 -0.074931554
0.32190725 -0.15623128 0.23945193 0.0550704 -0.091188274 0.2554083 0.11835107 -0.112085566
0.058000244 -0.17460082 -0.06955443 -0.1948248 -0.07248513 0.013454154 -0.14235981 -0.16098486
0.18150869 -0.019702299 0.25028315 0.10170967 0.08588595 0.29677168 -0.15624158 0.32700562
0.23331435 0.20286517 -0.030673346 -0.049465537 0.19170113 0.21181981 0.21019618 0.20258446
-0.11253669 0.32332796 -0.18991043 0.30270454 0.25383225 0.3019156 -0.16466627 -0.051722195
-0.027238294 0.073824316 0.13496514 0.30838394 0.16013052 0.22723317 0.006633213 -0.08132028
0.074612886 0.29586935 -0.15410593 0.26803935 0.29714444 0.059994444 -0.15962528 0.17575413
8.7564935e-05 0.31902754 0.28520805 -0.06816495 0.102279626 0.19758792 0.18670267 0.2231019
-0.11837672 0.19240892 0.20736921 0.047952287 -0.16436644 0.032995038 -0.14798434 0.13842428
0.20388529 -0.14943008 -0.15875208 0.0321682 0.20984006 0.092533864 0.05525726 0.114753656
0.20485118 0.2515455 0.17129107 -0.060265914 -0.11183024 0.24521653 0.32213166 -0.06442141
-0.07083599 0.31196052 0.07941042 0.11553815 0.19812101 0.08731658 -0.06840158 0.2547782
-0.06037489 0.23354761 0.20059815 -0.016047006 0.26364857 0.10230929 -0.022582253 0.020222913
-0.01925997 0.15227467 0.08295397 -0.17564696 0.30675825 0.11229566 0.2298684 0.028069416
0.14142685 -0.200146 0.31180462 -0.027370818 0.25518644 0.124857105 -0.04987986 -0.16667774
0.06179266 -0.008529455 0.23319857 -0.14651148 -0.08179333 0.14592068 0.28206974 0.088890605
-0.0695025 -0.06622631 -0.203501 0.25994068 0.082233995 0.046491466 0.21315604 0.25115615
0.18970108 -0.21144891 -0.18346289 -0.004741311 0.021734953 0.08670795 -0.10270183 -0.22052239
-0.15313071 0.031100005 0.13154694 0.19812825 -0.014840126 0.01476267 0.22008416 -0.004903227
0.23358724 -0.059031114 -0.047139645 0.19517127 0.028056145 -0.08691013 -0.09567459 0.09189972
-0.15725246 -0.20715708 -0.12167095 0.04110691 -0.10393867 0.19706902 -0.25031734 0.12687305
00000000: 8260 8fbd 1224 4a3e 202b 4c3e e2af 2d3e
00000010: 8b6a 0a3e 8499 eb3d 6748 1fbe c9d9 b9bc
00000020: fab0 d7bc 3a12 bcbd 1ba6 003e f969 b5bd
00000030: b027 ad3d e977 4c3e 5ce7 c9bd 65af 3c3e
00000040: 97b3 26be d50d 3d3d e563 6d3e bd3c d33d
00000050: 4e57 1d3b 36dc bebd 1265 c4bd 895a 023e
00000060: bb70 3abe 6077 9ebd 6d24 0fbe bcca a33d
00000070: 20dc d5bc 2a65 773e d414 673e 7dbe 8e3e
00000080: ca5e c73d 24e2 f1bd d710 10bd c7f9 04be
00000090: fe26 9e3e c1f6 193e 6a39 8e3d 24f5 d13d
000000a0: d7b6 6f3e c21d 433e 07fc febd 9516 853e
000000b0: dfdc a73e 52eb 04be 7ebb 633d 0013 37be
000000c0: d521 9abc 8ddd 4cbe df30 3bbc 6874 0e3e
000000d0: 58bb 23bc 3d73 c13d 0918 d03c c471 abbd
000000e0: 8971 0bbd a5c4 23bd 0c08 0ebe 20e1 193c
000000f0: f5e1 e4bd dfe3 1a3d 2b27 0cbe c84b 853e
00000100: 38e6 01b8 c10a d0bd 3ccc 04bd 663b 0fbe
00000110: bb11 ffbd 8878 fdbc a40c 9bbd 92b5 943e
00000120: fe7b 273e 29d9 0cbe 45d5 953d 0209 133e
00000130: 9025 3abe 49f0 25bd 7a5f ecbc f43d 413e
00000140: 9dd3 f03d 7435 303e 6538 923e f258 9f3e
00000150: ba02 d13d 90d8 4d3e f740 873d b775 99bd
00000160: 07d1 a43e 18fb 1fbe e332 753e 8091 613d
00000170: ebc0 babd e0c4 823e 0c62 f23d 1e8d e5bd
00000180: aa91 6d3d 8fca 32be 8e72 8ebd 2780 47be
00000190: 1573 94bd d06e 5c3c c5c6 11be 37d9 24be
000001a0: 6add 393e b766 a1bc 1d25 803e 294d d03d
000001b0: f9e4 af3d 75f2 973e cbfd 1fbe 486d a73e
000001c0: f5e9 6e3e e3bb 4f3e ab46 fbbc 609c 4abd
000001d0: 4d4d 443e 4be7 583e ab3d 573e 4d72 4f3e
000001e0: a379 e6bd 3e8b a53e e177 42be 17fc 9a3e
000001f0: 4df6 813e ae94 9a3e 469e 28be a7da 53bd
00000200: d822 dfbc 3431 973d 4d34 0a3e 80e4 9d3e
00000210: 41f9 233e d0af 683e 6c5b d93b 3f8b a6bd
00000220: a4ce 983d 307c 973e f2cd 1dbe 743c 893e
00000230: 5123 983e bcbc 753d cf74 23be e4f8 333e
00000240: 11a3 b738 9457 a33e ca06 923e 119a 8bbd
00000250: fb77 d13d 7d54 4a3e fc2e 3f3e d374 643e
00000260: 7e6f f2bd d806 453e 9858 543e 9e69 443d
00000270: ad4f 28be ce25 073d 3589 17be 18bf 0d3e
00000280: 4ec7 503e 3304 19be e88f 22be cdc2 033d
00000290: 50e0 563e 6582 bd3d 7055 623d f703 eb3d
000002a0: 82c4 513e 92ca 803e ed66 2f3e 64d9 76bd
000002b0: 4107 e5bd 0b1a 7b3e 71ee a43e 5fef 83bd
000002c0: 7612 91bd 4ab9 9f3e eea1 a23d 449f ec3d
000002d0: 3ce0 4a3e 09d3 b23d 2116 8cbd 4a72 823e
000002e0: a94b 77bd 1b27 6f3e 9a69 4d3e 0375 83bc
000002f0: f2fc 863e 8887 d13d 6bfe b8bc 86aa a53c
00000300: 16c7 9dbc e4ed 1b3e c5e3 a93d ccdc 33be
00000310: 6b0f 9d3e 44fb e53d 9f62 6b3e d5f1 e53c
00000320: 33d2 103e 13f3 4cbe dba4 9f3e c438 e0bc
00000330: cca7 823e 15b5 ff3d d34e 4cbd 92ad 2abe
00000340: 4d1a 7d3d 21bf 0bbc 9bcb 6e3e 1b07 16be
00000350: 4383 a7bd 3b6c 153e 726b 903e 470c b63d
00000360: 5457 8ebd a9a1 87bd 9162 50be f216 853e
00000370: 4c6a a83d d66d 3e3d 9445 5a3e 8a97 803e
00000380: 0041 423e 1086 58be b2dd 3bbe 005d 9bbb
00000390: 800d b23c f093 b13d 5655 d2bd 9fd0 61be
000003a0: 4cce 1cbe 70c5 fe3c 3eb4 063e 22e2 4a3e
000003b0: 0024 73bc 20df 713c be5d 613e 40ab a0bb
000003c0: 7e31 6f3e 9cca 71bd 8015 41bd fada 473e
000003d0: 00d6 e53c f0fd b1bd 0af1 c3bd ec35 bc3d
000003e0: ca06 21be fc20 54be 9e2e f9bd b85f 283d
000003f0: ccdd d4bd 76cc 493e 9829 80be 02eb 013e

lstm.weight_hh_l0 f4 [56, 14]
0.10063732 0.21039084 -0.15428624 0.21034285 0.15282503 -0.26937446 -0.0141809285 -0.024528839
-0.039104808 0.12493585 0.1173414 -0.22505912 0.2262539 0.20707321 -0.10650557 0.22287908
0.11246732 0.2418305 -0.16933274 0.0257366 0.106993884 -0.10457218 0.05627677 0.045391828
-0.26288304 -0.24056302 0.01358825 0.18375692 -0.118830055 0.1846371 0.068508595 -0.15481174
0.101520956 0.06585341 -0.2614737 0.16496423 -0.2539498 -0.0906366 -0.25012815 -0.25317407
-0.15944722 0.008971602 0.0028192657 0.04386401 -0.24812005 -0.17015058 0.12582284 -0.20410267
-0.0432474 0.22907433 -0.17395501 0.24657924 -0.07938093 -0.01968883 0.12749474 0.20989993
-0.23699048 0.12123707 -0.2647465 -0.11096741 0.13646367 -0.08978064 0.022435516 -0.0198666
0.060560882 -0.14674991 -0.006406158 0.25163218 0.1474685 -0.087949365 -0.07890804 0.025757581
-0.1858033 0.22051099 -0.2176467 -0.23534107 0.141395 0.08761579 0.19881728 -0.22644779
0.24003187 0.23076278 -0.03656964 0.21860671 0.08784041 0.044194728 0.16754928 0.20218895
-0.02075447 0.11733541 -0.16545875 -0.059028875 0.120148465 -0.16579863 -0.22959276 -0.13578087
-0.1674631 -0.001552999 0.23138002 -0.22060281 0.12702248 -0.00010380149 0.1839711 -0.24176311
0.015348256 0.1972869 -0.16612133 -0.20823154 -0.05358267 -0.14916037 0.116481066 -0.14128964
-0.01108548 0.25743988 -0.11067158 0.06776041 0.15280691 0.24579415 -0.05173877 -0.24248162
-0.16124173 0.18995935 0.17890093 -0.20078358 0.11125463 0.04715711 0.059648305 0.23405513
-0.17704417 0.26334158 -0.038229227 -0.14193204 0.24418786 -0.2608448 0.22632697 0.17880383
0.18923095 0.06260669 0.044816226 0.24117574 0.23772123 -0.07041262 0.00820744 -0.19566822
-0.06807165 -0.03745228 0.21217257 0.14243332 0.15214315 0.13059086 0.08940652 0.18638238
0.11746898 -0.13732855 -0.21972102 -0.075010255 -0.21844557 -0.008697399 -0.062303096 -0.0016439949
0.1831967 -0.1796537 0.15205161 0.13014624 0.05210206 -0.19041762 0.07372784 -0.1802851
0.16373223 -0.037654698 0.091664076 0.2078473 0.16982132 0.040691465 -0.0927704 -0.19253114
-0.1698041 -0.04756446 -0.2030942 -0.075012386 -0.1886054 0.22642267 -0.10081257 -0.07017483
0.063049555 -0.07638873 0.18558109 0.14618543 0.023774564 0.120853454 0.13095993 0.062402397
0.05784461 -0.0033516884 0.13719276 -0.089267224 -0.02540572 0.02887857 -0.17744242 -0.056016386
-0.10646081 -0.07360168 -0.1376137 -0.112912714 -0.07059492 0.1652813 0.07207957 -0.207494
0.2582135 0.18565577 -0.16389185 -0.08885722 0.26544735 0.22228602 -0.062117934 0.015642375
-0.1638226 -0.21197654 -0.24923815 -0.24724042 -0.2586276 -0.027556181 -0.060068473 -0.023683473
0.071457386 -0.20564425 -0.14639658 -0.0073826313 0.17063978 -0.116355866 -0.11182329 0.00071439147
-0.25951546 0.18045855 -0.023168221 -0.070492536 0.17802191 -0.19906375 0.17554274 0.15019241
-0.21008253 -0.24754314 0.14978597 0.16441278 0.2669941 0.08443171 -0.093828015 -0.025821626
0.2422835 -0.2543159 -0.06674521 0.23618959 0.21008119 0.13930902 -0.1444563 -0.048136353
00000000: f01a ce3d b270 573e 36fd 1dbe 1e64 573e
00000010: 2a7e 1c3e 73eb 89be 2057 68bc b4f0 c8bc
00000020: 5d2c 20bd 5ede ff3d b050 f03d e675 66be
00000030: 1aaf 673e 000b 543e 981f dabd 6a3a 643e
00000040: 4455 e63d 6aa2 773e 9065 2dbe 90d5 d23c
00000050: 9c1f db3d f029 d6bd 7882 663d c8ec 393d
00000060: 9b98 86be 2756 76be 40a1 5e3c c62a 3c3e
00000070: 2c5d f3bd 8211 3d3e 3c4e 8c3d f886 1ebe
00000080: 38ea cf3d 27de 863d e1df 85be 62ec 283e
00000090: b505 82be af9f b9bd cc10 80be 08a0 81be
000000a0: 2246 23be a0fd 123c 6ec3 383b c0aa 333d
000000b0: 2f13 7ebe f43b 2ebe b4d7 003e 4a00 51be
000000c0: 3024 31bd 7692 6a3e 4321 32be 457f 7c3e
000000d0: 7892 a2bd 784a a1bc fb8d 023e 02f0 563e
000000e0: a2ad 72be 244b f83d da8c 87be e242 e3bd
000000f0: 22bd 0b3e eade b7bd b0ca b73c 48bf a2bc
00000100: b00e 783d 9c45 16be c0ea d1bb efd5 803e
00000110: fc01 173e cc1e b4bd 8a9a a1bd 9001 d33c
00000120: 3843 3ebe a2cd 613e c7de 5ebe 40fd 70be
00000130: dac9 103e e86f b33d c296 4b3e eee1 67be
00000140: eaca 753e 144d 6c3e 0cca 15bd 70da 5f3e
00000150: ace5 b33d 8805 353d 0a92 2b3e 9f0a 4f3e
00000160: 4705 aabc 8c4d f03d 056e 29be 43c8 71bd
00000170: 6610 f63d 1ec7 29be 5d1a 6bbe 240a 0bbe
00000180: 727b 2bbe 008e cbba e2ee 6c3e b4e5 61be
00000190: 2e12 023e 00b0 d9b8 ec62 3c3e c090 77be
000001a0: 4077 7b3c 9405 4a3e b61b 2abe a63a 55be
000001b0: 8079 5bbd 7fbd 18be a08d ee3d 3bae 10be
000001c0: e09f 35bc 29cf 833e c8a7 e2bd f8c5 8a3d
000001d0: 6a79 1c3e 76b1 7b3e 08ec 53bd 1a4d 78be
000001e0: 8d1c 25be b484 423e ce31 373e 369a 4dbe
000001f0: 78d9 e33d d027 413d c851 743d 26ac 6f3e
00000200: 114b 35be b5d4 863e 4096 1cbd a256 11be
00000210: 620c 7a3e 738d 85be 42c2 673e 5a18 373e
00000220: c2c5 413e f037 803d 3891 373d c6f6 763e
00000230: 326d 733e 7e34 90bd 8078 063c 405d 48be
00000240: 2669 8bbd 9067 19bd c443 593e 0ada 113e
00000250: 6acb 1b3e 9cb9 053e c41a b73d 06db 3e3e
00000260: 9493 f03d db9f 0cbe 8cfe 60be fa9e 99bd
00000270: 32b0 5fbe 897f 0ebc 8831 7fbd 517b d7ba
00000280: ea97 3b3e 24f7 37be 6bb3 1b3e 0e45 053e
00000290: f868 553d d6fc 42be 9ffe 963d a89c 38be
000002a0: 6ca9 273e d03b 1abd 60ba bb3d ecd5 543e
000002b0: a4e5 2d3e 18ac 263d 68fe bdbd e226 45be
000002c0: 20e1 2dbe f4d2 42bd edf7 4fbe 18a0 99bd
000002d0: c621 41be 58db 673e d276 cebd d2b7 8fbd
000002e0: 2020 813d b271 9cbd f808 3e3e a2b1 153e
000002f0: e0c2 c23c 0482 f73d 5c1a 063e a899 7f3d
00000300: 78ee 6c3d 00a8 5bbb 427c 0c3e bcd1 b6bd
00000310: a81f d0bc c092 ec3c 77b3 35be 7071 65bd
00000320: 2008 dabd 7abc 96bd 9bea 0cbe c83e e7bd
00000330: 1294 90bd 803f 293e 749e 933d 4f79 54be
00000340: 8f34 843e 8c1c 3e3e 44d3 27be c6fa b5bd
00000350: b7e8 873e f29e 633e 606f 7ebd 7024 803c
00000360: 1dc1 27be 6110 59be 4938 7fbe 982c 7dbe
00000370: d66a 84be 80bd e1bc 5c0a 76bd d803 c2bc
00000380: 4058 923d 6894 52be fce8 15be 00ea f1bb
00000390: 32bc 2e3e fc4b eebd 9c03 e5bd 0046 3b3a
000003a0: 36df 84be 20ca 383e 48cb bdbc 645e 90bd
000003b0: 604b 363e 5ed7 4bbe 7ac1 333e 0acc 193e
000003c0: e01f 57be f37b 7dbe 7e61 193e d35b 283e
000003d0: 73b3 883e 88ea ac3d e728 c0bd e087 d3bc
000003e0: 2a19 783e b235 82be b6b1 88bd afdb 713e
000003f0: 861f 573e 06a7 0e3e 5aec 13be a02a 45bd

lstm.bias_ih_l0 f4 [56]
0.27680832 0.22146824 0.14760539 0.14011575 -0.24404739 -0.2641365 -0.12141707 0.038708895
0.22871763 0.050754845 -0.14928699 -0.16994902 0.15644008 -0.031674147 -0.25237072 0.1523205
0.21800274 -0.16054021 -0.14512938 -0.029365903 0.07688662 0.22444412 -0.076621406 0.20684469
0.22236693 -0.28116652 -0.06566061 0.13740578 0.011878763 0.21141332 0.019892812 0.24679777
-0.20385367 0.17349726 0.11654726 -0.2523422 0.21068077 0.05199766 0.01628223 0.10515213
-0.054487407 -0.12690748 -0.16771527 -0.2388573 -0.07909209 -0.15113279 -0.24049962 0.110058665
0.035179794 -0.24871689 0.22730288 -0.1539127 -0.25776798 0.15719277 0.14991146 0.18187918
00000000: d2b9 8d3e 92c8 623e de25 173e 817a 0f3e
00000010: 8fe7 79be e63c 87be 83a9 f8bd 388d 1e3d
00000020: f434 6a3e 50e4 4f3d b0de 18be 1e07 2ebe
00000030: d431 203e c0bc 01bd bc36 81be e8f9 1b3e
00000040: 1c3c 5f3e a764 24be cc9c 14be c390 f0bc
00000050: bb76 9d3d aed4 653e afeb 9cbd 18cf 533e
00000060: 28b4 633e 0ff5 8fbe 1279 86bd 1ab4 0c3e
00000070: 259f 423c bc7c 583e 40f6 a23c 8eb8 7c3e
00000080: 04bf 50be 44a9 313e 54b0 ee3d ff32 81be
00000090: b3bc 573e 80fb 543d 5062 853c 005a d73d
000000a0: 302e 5fbd 09f4 01be 8dbd 2bbe 0297 74be
000000b0: 09fb a1bd 8ec2 1abe 8845 76be 7066 e13d
000000c0: b018 103d a4af 7ebe 16c2 683e 4a9b 1dbe
000000d0: 2afa 83be 24f7 203e 6482 193e 893e 3a3e

lstm.bias_hh_l0 f4 [56]
0.31681496 0.17808202 -0.11520888 -0.011318972 -0.25105035 -0.13233776 -0.2941862 0.13261655
-0.23988488 0.19625902 0.25075492 -0.2965214 0.2515982 0.027864188 0.26183113 0.03153363
-0.075041756 -0.28892332 0.049043387 0.121216066 -0.12631974 -0.016514242 0.061696 0.19668773
-0.17699711 -0.13977548 0.24536689 0.24241748 0.049928207 0.25688574 -0.12452556 -0.1449821
-0.13822572 0.13736326 -0.08484684 0.186604 -0.20297514 0.017169625 0.040842712 0.051501453
-0.04774277 0.19697276 0.12114808 0.19839153 -0.23206854 -0.089620456 0.018641382 0.068069935
-0.10749741 0.07273626 -0.21276659 0.13833067 -0.25254387 -0.04277061 -0.11118938 -0.24670582
00000000: 9235 a23e 225b 363e a2f2 ebbd 3673 39bc
00000010: ac89 80be 8d83 07be 939f 96be a2cc 073e
00000020: 62a4 75be 20f8 483e f362 803e a7d1 97be
00000030: 7bd1 803e 7043 e43c bb0e 863e 6829 013d
00000040: 7eaf 99bd c2ed 93be b8e1 483d 2140 f83d
00000050: f659 01be e048 87bc f2b4 7c3d 8268 493e
00000060: bb3e 35be 4e21 0fbe 7541 7b3e 4a3c 783e
00000070: 8581 4c3d 8786 833e 4207 ffbd 3076 14be
00000080: 0b8b 0dbe f4a8 0c3e 2ec4 adbd 1e15 3f3e
00000090: b7d8 4fbe 50a7 8c3c b04a 273d 30f3 523d
000000a0: ec8d 43bd 3ab3 493e 7c1c f83d 2627 4b3e
000000b0: 60a3 6dbe ee8a b7bd d0b5 983c 4068 8b3d
000000c0: 9a27 dcbd c0f6 943d 7cdf 59be 8ea6 0d3e
000000d0: 6e4d 81be 3c30 2fbd 42b7 e3bd 73a0 7cbe
